ncde/best_model_multitarget_rde.pth (torch, 91627 bytes, 12 tensors)

shared_layers.0.weight f4 [128, 78]
0.0059953723 0.015935438 -0.0021591787 0.0070513533 -7.8627956e-05 -0.011039754 -0.0011964283 -0.00039527382
-0.005700868 -0.012328217 0.012908995 -0.014286196 0.016365862 0.0071962774 0.0012905841 0.012143777
0.025525989 -0.0067828475 -0.006917115 -0.006557311 0.010053448 -0.010929001 -0.008587703 0.00053981
-0.012241895 -0.015856633 0.012959092 0.022093633 0.00051867205 0.008674457 7.817351e-05 0.0043507265
0.0073752617 -0.0021339587 -0.0025639832 -0.013700533 0.012362263 -0.0062186653 -0.01872041 -0.00993317
0.0016116874 -0.00956686 -0.0010490066 -0.0065330076 0.0051431577 -0.006441626 -0.005899562 0.0029146706
-0.00086204236 0.006025149 -0.014672034 0.00915552 0.00776861 -0.0050929906 0.0011476831 0.014917202
-0.00222407 -0.0013618842 0.0083239 -0.0011435456 0.019495342 0.0049783792 0.012866171 -0.027085396
-0.012493843 -0.0074794637 -0.0022778932 -0.0021801097 -0.014451039 0.008095579 0.011351486 -0.0013270893
-0.020968148 -0.017869974 0.0024894492 0.0053273547 -0.0302792 -0.0025267254 0.0072110714 0.0033709162
0.02852678 -0.003186834 -0.0031495756 0.014320585 0.0138260415 -0.011159656 0.0066457638 -0.003944086
-0.005963032 0.0027985377 0.008896846 -0.008192183 0.012242035 -0.0011939213 0.02645793 -0.006483514
-0.012697458 0.0085367095 -0.017426115 -0.00050125696 -0.015962226 0.018839683 -0.0034613647 -0.0027096595
-0.02304096 0.015838701 -0.015204482 -0.007391956 -0.017773252 -0.012442156 0.0010729147 -0.0023096318
-0.002653195 -0.011391879 0.006607254 -0.014199331 -0.008445652 -0.0052824775 0.002907576 -0.011552967
-0.0153135955 0.002811965 0.0016538398 -0.008479996 -0.0031273386 -0.0020880364 0.00035026117 0.0020136293
-0.00980079 0.0090738805 0.0042265477 -0.0022506043 -0.0033981344 0.0067452835 0.0035673813 -0.004972476
0.0071213776 0.0044715633 0.011990504 0.0026770076 0.0098838555 -0.03250316 0.0014469484 0.0108228475
-0.011672581 0.010514578 -0.01162549 0.0071168533 0.00867332 -0.0029034694 0.00039191698 0.012354249
0.0044110552 0.012412762 0.007323577 0.0005173335 -0.0116702905 -0.020571034 -0.00039806686 -0.005487751
0.011918904 -0.014438585 -0.009750032 -0.0018657946 -0.015925515 -0.0010047657 -0.0023595563 0.005368486
-0.0052994867 -0.015976872 0.0017228896 0.0017183749 -0.009603507 -0.009496108 -0.005827079 0.0016549771
0.007313479 -0.0010890461 0.012070189 -0.0036749046 0.0035263659 0.01688163 0.018023714 -0.0016280453
0.0113158645 -0.0032741313 0.009694973 0.0036875345 -0.0027735264 -0.00011257792 0.008420944 -0.005028686
-0.011396153 0.01040958 0.003149095 0.00706934 -0.0073572895 -0.007956754 0.003712748 0.0011806699
-0.0038374567 0.00012801592 -0.0013557678 0.000709754 -0.0029223121 0.00033339378 -0.010633382 -0.0031734111
0.0085273795 -0.0065179775 0.0006908245 0.0029466914 0.005446974 0.007956722 0.006141442 0.007067513
-0.003622209 0.01110528 -0.0031568531 0.013634465 0.006955138 0.023499092 -0.002404208 0.003580612
0.007235066 -0.011896374 -0.00799504 0.011879733 0.009283521 -6.151342e-05 -0.008018256 0.0010126543
0.0118878 0.00042475338 -0.014781529 -0.034533046 0.0033188886 -0.003705803 -2.976305e-05 -0.019976286
-0.0071270065 -0.0010698678 -0.0018612065 0.0038843676 -0.0065309373 0.008172801 -0.017864268 -0.0043971054
-0.0017833515 -0.0059395763 0.0037391698 0.0011772537 0.0068233036 -0.013653245 -0.0077748345 -0.0067155785
00000000: d474 c43b 098b 823c 0281 0dbb 0a0f e73b
00000010: 10e5 a4b8 16e0 34bc 79d1 9cba c13c cfb9
00000020: 59ce babb 4afc 49bc 4080 533c a610 6abc
00000030: b311 863c c0ce eb3b d128 a93a b1f6 463c
00000040: e11b d13c a642 debb f7a8 e2bb b6de d6bb
00000050: 38b7 243c 8d0f 33bc 70b3 0cbc 0982 0d3a
00000060: 3b92 48bc c5e5 81bc 5f52 543c b5fd b43c
00000070: 7ef7 073a 4f1f 0e3c 15f1 a338 8a90 8e3b
00000080: 2eac f13b e3d9 0bbb 8008 28bb 3378 60bc
00000090: 178b 4a3c f2c5 cbbb 8c5b 99bc bcbe 22bc
000000a0: 413f d33a 52be 1cbc d27e 89ba d712 d6bb
000000b0: ef87 a83b 4714 d3bb 1d51 c1bb 0f04 3f3b
000000c0: affa 61ba 9d6e c53b f962 70bc 0901 163c
000000d0: d38f fe3b 1ae3 a6bb db6d 963a 4867 743c
000000e0: b4c1 11bb 4081 b2ba f860 083c 06e3 95ba
000000f0: b2b4 9f3c ac21 a33b a2cc 523c 31e2 ddbc
00000100: fab2 4cbc 4a16 f5bb b548 15bb 2ce0 0ebb
00000110: 0dc4 6cbc 52a3 043c 95fb 393c baf1 adba
00000120: 65c5 abbc 0d64 92bc 0726 233b 1791 ae3b
00000130: 160c f8bc 6b97 25bb da4a ec3b 97ea 5c3b
00000140: feb0 e93c 34da 50bb 1c69 4ebb e3a0 6a3c
00000150: 9f86 623c fdd6 36bc b5c4 d93b 643d 81bb
00000160: 8a65 c3bb ac67 373b 14c4 113c 8238 06bc
00000170: d192 483c 5a7d 9cba 4dbe d83c a873 d4bb
00000180: 0009 50bc 8edd 0b3c 36c1 8ebc c966 03ba
00000190: 37c3 82bc ae55 9a3c 10d8 62bb 8b94 31bb
000001a0: 65c0 bcbc 2ac0 813c 381c 79bc 3938 f2bb
000001b0: 3699 91bc 2fda 4bbc 0ba1 8c3a 315d 17bb
000001c0: 3ae1 2dbb 01a5 3abc aa81 d83b 50a4 68bc
000001d0: a25f 0abc a218 adbb 088d 3e3b a848 3dbc
000001e0: e0e5 7abc f248 383b a8c5 d83a aeef 0abc
000001f0: 09f4 4cbb 70d7 08bb 42a3 b739 18f7 033b
00000200: 7e93 20bc 9daa 143c da7e 8a3b e07e 13bb
00000210: 3cb3 5ebb 8a07 dd3b baca 693b 27f0 a2bb
00000220: 725a e93b 3186 923b d273 443c bc70 2f3b
00000230: e5ef 213c 0922 05bd 88a7 bd3a 5052 313c
00000240: 5a3e 3fbc 5645 2c3c d778 3ebc 7e34 e93b
00000250: 8a1a 0e3c 2248 3ebb 357a cd39 7a69 4a3c
00000260: 9d8a 903b e65e 4b3c 9efa ef3b aa9d 073a
00000270: bf34 3fbc 9684 a8bc a1b3 d0b9 98d2 b3bb
00000280: 8247 433c d18f 6cbc 99be 1fbc ae8d f4ba
00000290: 3a76 82bc 58b2 83ba c9a2 1abb 20ea af3b
000002a0: 51a7 adbb eee1 82bc 95d2 e13a 183b e13a
000002b0: 0758 1dbc 9095 1bbc 15f1 bebb d1eb d83a
000002c0: e9a5 ef3b 53be 8eba 0bc2 453c abd6 70bb
000002d0: 9a1a 673b 584b 8a3c 78a6 933c 2364 d5ba
000002e0: 2d66 393c cf92 56bb aad7 1e3c 90aa 713b
000002f0: 0dc4 35bb d017 ecb8 00f8 093c adc7 a4bb
00000300: eeb6 3abc f18c 2a3c 0c61 4e3b eca5 e73b
00000310: 6b15 f1bb 0c5d 02bc 9351 733b b5c0 9a3a
00000320: d77d 7bbb 033c 0639 05b4 b1ba c90e 3a3a
00000330: 4384 3fbb 5bcb ae39 a337 2ebc 01f9 4fbb
00000340: 6cb6 0b3c c294 d5bb 7318 353a 471d 413b
00000350: 887c b23b e95c 023c 263e c93b 9996 e73b
00000360: 9562 6dbb ecf2 353c 35e3 4ebb 1763 5f3c
00000370: ede7 e33b 2b81 c03c eb8f 1dbb b3a8 6a3b
00000380: 2214 ed3b 02e9 42bc a1fd 02bc 36a3 423c
00000390: e919 183c c400 81b8 015f 03bc 0abb 843a
000003a0: 0cc5 423c 6fb1 de39 3a2e 72bc 8672 0dbd
000003b0: b681 593b 0fdd 72bb aaab f9b7 4fa5 a3bc
000003c0: aa89 e9bb ce3a 8cba baf3 f3ba e090 7e3b
000003d0: 7901 d6bb 36e7 053c 1658 92bc 9815 90bb
000003e0: 59bf e9ba c7a0 c2bb dc0c 753b 144e 9a3a
000003f0: 0596 df3b dcb1 5fbc 0ac4 febb 5b0e dcbb

shared_layers.0.bias f4 [128]
0.007078003 0.012540556 -0.011744411 -0.012650719 0.010466963 0.012112731 0.012492703 -0.012409574
-0.01259821 0.01172693 0.01216812 0.012351214 -0.012350652 0.012075441 -0.012199642 0.012591613
-0.011680459 0.0124993725 0.012535676 0.012670502 0.012358123 -0.009757681 -0.005450749 -0.008522903
-0.007565795 -0.011028597 -0.010684955 0.00997956 -0.012309382 0.0126313185 0.012791117 -0.012570051
-0.011777603 0.0122079 0.01205803 -0.009538037 0.01221946 -0.012270801 -0.012537736 0.012322801
-0.010556209 -0.01238481 0.012568893 -0.011003988 -0.009511255 -0.01241224 -0.011917938 -0.010890008
-0.01194316 0.011781166 -0.011955754 -0.012463475 -0.012187617 0.012919021 0.012647928 -0.012242032
0.0103784185 -0.012133568 -0.012015216 0.011839128 0.007624291 -0.012852475 0.009202842 0.012644679
0.011621785 0.012679565 0.011937186 -0.010959073 0.011904391 -0.012422948 -0.012316115 -0.012630677
-0.012899096 -0.012083534 0.010382518 0.0120468065 0.0074954107 0.012456365 -0.012328594 0.012123096
0.01176516 -0.011034644 0.011700659 -0.011416774 -0.011971396 -0.0113356095 0.008006677 0.009221821
0.010820219 -0.012895206 -0.010377248 0.009375191 -0.008747368 0.010918709 -0.011554606 0.013024499
0.011038779 -0.0105741955 -0.012137511 -0.012412883 -0.012038329 0.011607169 -0.010116758 0.010563784
0.009807297 -0.011042097 0.012841596 0.008577809 0.012237484 0.012557882 -0.012134671 -0.012360083
0.012352738 -0.012762621 -0.008688366 0.010518406 -0.012529952 -0.008984149 -0.011427137 -0.012224307
-0.012577885 -0.011909985 0.011973915 0.012693332 -0.012578698 -0.010656849 0.0117741795 -0.013059929
00000000: 98ee e73b e776 4d3c a16b 40bc f644 4fbc
00000010: a07d 2b3c 7a74 463c 32ae 4c3c 8751 4bbc
00000020: b968 4ebc 4f22 403c cb5c 473c bf5c 4a3c
00000030: 645a 4abc 12d8 453c 02e1 47bc 0e4d 4e3c
00000040: 655f 3fbc 2bca 4c3c 7062 4d3c f097 4f3c
00000050: ba79 4a3c aede 1fbc 329c b2bb a5a3 0bbc
00000060: 7dea f7bb 4ab1 34bc f30f 2fbc 4f81 233c
00000070: 4aad 49bc 97f3 4e3c d591 513c 9df2 4dbc
00000080: d9f6 40bc a503 483c 0b8f 453c 6d45 1cbc
00000090: 2134 483c 780b 49bc 146b 4dbc 93e5 493c
000000a0: f3f3 2cbc a8e9 4abc c2ed 4d3c 124a 34bc
000000b0: 18d5 1bbc b55c 4bbc 7443 43bc 016c 32bc
000000c0: 3ead 43bc cb05 413c 11e2 43bc 9a33 4cbc
000000d0: 92ae 47bc 4daa 533c 4139 4f3c ce92 48bc
000000e0: 3e0a 2a3c dfcb 46bc 78db 44bc e7f8 413c
000000f0: 30d5 f93b 3093 52bc 84c7 163c a12b 4f3c
00000100: 4d69 3e3c f3bd 4f3c 3094 433c af8d 33bc
00000110: a30a 433c 9f89 4bbc 88c9 49bc e6f0 4ebc
00000120: bb56 53bc 04fa 45bc 701b 2a3c f85f 453c
00000130: 109c f53b c815 4c3c dffd 49bc f39f 463c
00000140: a8c2 403c a7ca 34bc 1fb4 3f3c 6c0d 3bbc
00000150: ad23 44bc feb8 39bc 702e 033c 1f17 173c
00000160: 4a47 313c 6a46 53bc 5505 2abc 679a 193c
00000170: 1f51 0fbc 63e4 323c 884f 3dbc b564 553c
00000180: ffdb 343c 643f 2dbc 69dc 46bc 685f 4bbc
00000190: 693c 45bc ff2b 3e3c c2c0 25bc b913 2d3c
000001a0: c9ae 203c e9e9 34bc 8f65 523c f089 0c3c
000001b0: ba7f 483c 93bf 4d3c 80d0 46bc f281 4abc
000001c0: 2363 4a3c 501a 51bc a659 0ebc 6455 2c3c
000001d0: 6e4a 4dbc 4132 13bc e338 3bbc 7648 48bc
000001e0: 7913 4ebc 1922 43bc 3d2e 443c b1f7 4f3c
000001f0: e216 4ebc 109a 2ebc 7de8 403c 50f9 55bc

shared_layers.3.weight f4 [64, 128]
-0.008092378 0.017869826 -0.003741511 -0.0075247674 -0.0017813713 0.0030675267 0.02698555 -0.0015297754
-0.015107863 0.020671176 0.006855426 0.015122413 -0.0003051221 0.004216538 -0.01830628 0.0025566986
0.00058480666 0.01997253 0.029499393 0.0039694966 0.014152874 -0.017590422 0.005956118 -0.0089932885
0.001368006 -0.011642428 0.0044148946 -0.0011373105 -0.017435927 0.009907806 0.009497396 -0.029505309
-0.020377241 0.010628501 0.0019172872 0.0051211547 0.0045040417 -0.004574402 0.0027536883 0.01972223
-0.010823859 -0.007098241 0.019639848 0.008472919 0.00079301605 -0.0036537237 0.0054781735 0.002221353
-0.013532014 0.006210104 -0.024888216 -0.008366028 -0.010526704 0.013842398 0.010048961 0.004123788
-4.7951555e-05 -0.013560393 -0.009521836 0.037669007 0.013078746 -0.020358562 -0.00972979 -0.00977329
0.0365797 0.0014156481 0.016241655 -0.00506716 -0.0018166988 -0.018892437 -0.013962063 -0.015302664
0.011239864 -0.008677137 0.009571137 0.014222458 0.003133576 -0.005202631 0.004757938 0.0030201783
0.016100219 -0.009538633 0.011423457 0.0018348865 -0.0016390155 0.000498868 0.0032271715 -0.011825069
-0.0049729957 -0.018293753 -0.025983645 0.018176118 -0.0038503583 0.0007237338 0.012183253 0.016598996
0.008572513 -0.008193545 -0.022136247 -0.015777657 -0.01263386 0.014864769 -0.0068707527 0.005919708
0.009374308 -0.011097472 0.03191879 -0.0039258623 0.011528365 0.01820845 -0.011590217 0.0020457688
0.004315655 -0.008966418 -0.005717936 0.012010321 -0.013568477 -0.0126592275 -0.0004493374 -0.0020627233
-0.013115945 -0.0005612167 0.0049795737 0.017533785 -0.00034117786 0.006274976 0.027243266 -0.02399812
-0.014991 -0.0167717 0.03422492 -0.01326367 -0.017216317 -0.029524762 -0.0012512166 0.014566517
0.011207352 -0.021478098 -0.0061625256 -0.008443322 -0.0013060544 -0.035053547 0.0031180773 -0.004714577
0.012788307 -0.022093708 -0.029114183 -0.007804553 -0.012735933 0.0075949566 -0.01363897 0.01887871
-0.0032306497 0.008348988 0.015768161 -0.007058775 0.016032172 -0.00471875 -0.017711423 0.00427024
0.017581804 -0.010069303 -0.010271697 0.022852387 -0.014282401 0.014797163 0.03092953 -0.019152582
0.010253077 0.016997192 -0.002329282 0.0038224508 0.0068088383 0.016373275 0.008339461 -0.0015360172
-0.0143842 -0.015268472 0.01393407 0.0051279734 0.009626966 0.001255475 -0.01338993 0.027634315
0.011557495 -0.0043951427 0.026240252 -0.006722876 0.014592665 0.0145968245 -0.017782914 -0.017087445
0.0010148493 -0.012115916 0.0016630567 0.0055133128 -0.036598504 0.003011805 0.014248713 0.0092535755
0.013997526 0.02334336 -0.0018379496 -0.025417585 -0.0027606422 0.008121195 -0.005413463 -0.021719627
0.000116618256 0.009680682 -0.022879967 0.0027782032 0.004593447 0.015985943 0.0027094695 -0.005719
-0.02833289 0.008886449 0.0029908922 -0.022116385 -0.0034655712 0.012264729 0.011427595 -0.011672755
0.002827395 -0.0048656496 0.020807814 0.004133728 0.010393192 -0.023832258 0.020009503 -0.0037242293
-0.0014557502 -0.001651183 0.004178236 -0.028379971 -0.00852358 -0.0016286775 0.017604657 0.008042183
-0.014624697 0.011868837 0.016199432 -0.005241029 0.018395392 0.017240815 0.03512059 0.025328131
0.0049990634 0.00564845 -0.019894138 -0.0021197575 0.019351577 -0.010290848 -0.013270625 0.0069876797
00000000: e595 04bc be63 923c 2334 75bb 5392 f6bb
00000010: e77c e9ba 8f08 493b cd10 dd3c bf82 c8ba
00000020: f886 77bc 9956 a93c 7ba3 e03b ffc3 773c
00000030: ccf8 9fb9 e22a 8a3b 0df7 95bc 498e 273b
00000040: b64d 193a 6e9d a33c b6a8 f13c 8d12 823b
00000050: 75e1 673c ca19 90bc 8a2b c33b 9658 13bc
00000060: aa4e b33a e2bf 3ebc d2aa 903b cf11 95ba
00000070: cad5 8ebc 5a54 223c f79a 1b3c 1eb5 f1bc
00000080: 2cee a6bc 2a23 2e3c 7c4d fb3a 5ccf a73b
00000090: a496 933b dde4 95bb 3977 343b 8490 a13c
000000a0: 8e56 31bc 5c98 e8bb bfe3 a03c 00d2 0a3c
000000b0: 68e2 4f3a 5073 6fbb 4082 b33b 1e94 113b
000000c0: 61b5 5dbc 217e cb3b 5fe2 cbbc aa11 09bc
000000d0: 3278 2cbc 3acb 623c 66a4 243c d720 873b
000000e0: 971f 49b8 692c 5ebc 7a01 1cbc d14a 1a3d
000000f0: 3d48 563c 00c7 a6bc b269 1fbc 2620 20bc
00000100: 98d4 153d 458d b93a 380d 853c 6b0a a6bb
00000110: 4c1e eeba 50c4 9abc 23c1 64bc 06b8 7abc
00000120: 6827 383c 8d2a 0ebc 42d0 1c3c 5005 693c
00000130: ae5c 4d3b d57a aabb 7ae8 9b3b 2fee 453b
00000140: 9be4 833c ed47 1cbc 7429 3b3c 9380 f03a
00000150: 3cd4 d6ba 77c6 023a f47e 533b efbd 41bc
00000160: 83f4 a2bb c8dc 95bc a7db d4bc 15e6 943c
00000170: 4b56 7cbb f4b8 3d3a 449c 473c 9efa 873c
00000180: ba73 0c3c 383e 06bc 1357 b5bc 2540 81bc
00000190: 40fe 4ebc 5c8b 733c 0d24 e1bb 1cfa c13b
000001a0: b396 193c 2cd2 35bc 47bd 023d 85a4 80bb
000001b0: 78e1 3c3c e329 953c e5e4 3dbc 4e12 063b
000001c0: 576a 8d3b e2e7 12bc 865d bbbb f0c6 443c
000001d0: 514e 5ebc a668 4fbc 0c95 ebb9 c12e 07bb
000001e0: 43e4 56bc 9d1e 13ba b12b a33b 03a3 8f3c
000001f0: 1ee0 b2b9 509e cd3b 452d df3c b597 c4bc
00000200: d09c 75bc ce64 89bc 6e2f 0c3d dd4f 59bc
00000210: 3c09 8dbc eadd f1bc ddff a3ba 67a8 6e3c
00000220: 0b9f 373c d6f2 afbc 03ef c9bb dc55 0abc
00000230: ea2f abba 4f94 0fbd a858 4c3b bd7c 9abb
00000240: 0c86 513c ddfd b4bc de80 eebc 56bd ffbb
00000250: 60aa 50bc 1ddf f83b fd75 5fbc 86a7 9a3c
00000260: 4fb9 53bb 32ca 083c 3b2c 813c 4c4d e7bb
00000270: e755 833c be9f 9abb 8c17 91bc 5fed 8b3b
00000280: b707 903c b8f9 24bc 9f4a 28bc ee34 bb3c
00000290: bb00 6abc cd6f 723c ed5f fd3c e0e5 9cbc
000002a0: 86fc 273c b23d 8b3c dea6 18bb 1582 7a3b
000002b0: ad1c df3b 3f21 863c 3ca2 083c 2f54 c9ba
000002c0: b5ab 6bbc 9d28 7abc ba4b 643c 8f08 a83b
000002d0: 6cba 1d3c c08e a43a 7061 5bbc 5c61 e23c
000002e0: a65b 3d3c 2105 90bb ccf5 d63c 924b dcbb
000002f0: 1316 6f3c 8527 6f3c 79ad 91bc f8fa 8bbc
00000300: b104 853a d681 46bc ecfa d93a 05a9 b43b
00000310: 50e8 15bd b461 453b 6f73 693c 4f9c 173c
00000320: e155 653c 933a bf3c 5be7 f0ba 8a38 d0bc
00000330: e4eb 34bb c30e 053c 6b63 b1bb 5ced b1bc
00000340: f390 f438 b99b 1e3c c56e bbbc 8412 363b
00000350: a084 963b f4f4 823c 5b91 313b 7366 bbbb
00000360: 601a e8bc 7898 113c d802 443b 6c2d b5bc
00000370: a31e 63bb 00f2 483c cf3a 3b3c 153f 3fbc
00000380: d14b 393b 0770 9fbb 2675 aa3c 3974 873b
00000390: 3548 2a3c de3b c3bc f8ea a33c 3312 74bb
000003a0: dfce beba 826c d8ba 95e9 883b 1d7d e8bc
000003b0: 7ca6 0bbc 5979 d5ba a437 903c 5cc3 033c
000003c0: 6d9c 6fbc 8375 423c acb4 843c f0bc abbb
000003d0: efb1 963c 9c3c 8d3c 9cda 0f3d f17c cf3c
000003e0: 2fcf a33b a216 b93b 08f9 a2bc a1eb 0abb
000003f0: 3387 9e3c f29a 28bc 096d 59bc e8f8 e43b

shared_layers.3.bias f4 [64]
0.008549271 -0.009473459 -0.008400122 0.007892348 -0.010055388 -0.010137402 0.010421923 -0.009560052
0.007964561 0.009758709 -0.009925895 0.010259673 -0.009543489 -0.010812529 -0.010508036 0.010014792
-0.009560532 -0.010149666 -0.009307374 -0.009257631 -0.009731061 0.009542157 0.00962132 -0.010387982
0.010189894 -0.009374901 0.009972972 0.009942295 0.009364955 -0.009993946 -0.010138252 0.010983285
0.01002235 -0.009626456 -0.009445071 -0.010074042 0.009285206 0.00950231 -0.010057164 0.009874159
-0.010485982 -0.010014721 -0.009149627 0.009576509 0.00972039 0.010421895 -0.0098521905 -0.009663301
-0.010874092 -0.010046083 0.009601326 -0.010087875 0.00983288 0.010869682 -0.0092709465 -0.009875696
-0.009882675 -0.0089538265 0.009994517 -0.01035317 -0.010509889 -0.01003938 -0.010066025 0.0100074755
00000000: 3e12 0c3c 9136 1bbc aaa0 09bc e84e 013c
00000010: 5bbf 24bc 5917 26bc b7c0 2a3c c4a1 1cbc
00000020: ca7d 023c fee2 1f3c 39a0 22bc 3018 283c
00000030: 4b5c 1cbc 0927 31bc e629 2cbc 1515 243c
00000040: c7a3 1cbc c94a 26bc f57d 18bc 52ad 17bc
00000050: 076f 1fbc b556 1c3c bea2 1d3c 5b32 2abc
00000060: 83f3 263c 2f99 19bc ad65 233c 02e5 223c
00000070: 786f 193c a6bd 23bc e91a 26bc 3cf3 333c
00000080: c834 243c 48b8 1dbc 80bf 1abc 980d 25bc
00000090: fa20 183c 94af 1b3c cec6 24bc 39c7 213c
000000a0: 65cd 2bbc c914 24bc 51e8 15bc cae6 1c3c
000000b0: 4542 1f3c 99c0 2a3c 156b 21bc d252 1ebc
000000c0: 3f29 32bc 5398 24bc e14e 1d3c 9d47 25bc
000000d0: 171a 213c c016 323c 2be5 17bc accd 21bc
000000e0: f1ea 21bc 12b3 12bc 0bc0 233c 58a0 29bc
000000f0: ab31 2cbc 367c 24bc f8eb 24bc 65f6 233c

shared_layers.6.weight f4 [32, 64]
-0.038222134 0.022672115 -0.003964681 -0.0006802563 0.020590687 0.03802705 -0.00041449015 0.001415115
-0.021499384 -0.016836613 0.024828058 -0.0020969487 0.029396279 0.027847271 -0.012760668 -0.0077584637
0.0012223776 0.014219327 0.013903941 0.015154491 0.024794605 -0.015735272 -0.039588284 0.0012531498
-0.0019161212 -0.0059923213 0.0012613605 -0.019221487 -0.0068365093 -0.01150021 0.024804296 -0.0027924927
-0.005172218 0.008700328 0.021447342 0.033138916 0.00052141404 0.014552666 0.022290202 -0.008854437
-0.008686161 0.0050831987 -0.0070551694 -0.024428261 -0.012597983 0.004154616 0.016941696 -0.0062939352
-0.0064933114 0.023806978 -0.016160868 0.0238592 -0.01011331 -0.023402723 0.012075397 0.015744364
0.0030544135 -0.0054251575 -0.013844319 0.017892145 0.0071701375 0.0073587387 0.026538197 -0.013724333
-0.018078996 0.009516268 -0.0005349339 -0.02417049 0.017490996 0.014864803 -0.01751931 0.00035660775
-0.00029355352 0.007499553 0.019444019 -0.024170488 0.03386362 0.00711367 0.016617244 -0.04025883
-0.003516141 0.009167176 0.011150419 0.034547407 -0.0025392422 0.013943729 -0.017581152 0.0048357085
-0.022757046 0.019559758 -0.024059499 -0.011450932 -0.0016390457 0.01969255 0.035051294 -0.024316698
-0.0075876187 0.0012110946 0.013907549 0.039301373 -0.01004704 -0.015286103 0.0226773 0.008865698
-0.00692145 -0.005176022 0.011923764 -0.0153715 0.0003284625 0.00022123892 0.019737303 0.018266449
0.01028051 -0.008494967 0.008575785 0.026483424 -0.01904972 -0.031358242 0.0010990262 0.019896742
-0.007726089 0.014398912 0.0025448534 0.03807887 -0.0073217787 0.03873568 -0.0059239683 0.0005876038
-0.0020886292 -0.01802459 -0.043220162 0.00869027 -0.02100923 -0.020905752 0.025521643 0.0021860357
0.03326649 0.037651613 -0.0094145285 0.006110929 -0.013324306 -0.0077268817 -0.02321352 0.001971545
-0.00797964 -0.025727088 -0.0021633408 -0.011417946 -0.019684888 0.020236341 0.013629538 -0.020117396
0.008549032 -0.00022964881 0.0074123843 0.021122979 0.0114009455 -0.010712078 -0.01748016 0.012125964
-0.0057752975 -0.017631084 0.009396185 0.023320874 0.007477395 0.014207843 -0.021414941 0.022014312
-0.00578583 -0.018775728 -0.0027694546 0.021598585 0.007807537 -0.0045651677 -0.01104066 -0.004966941
-0.02305451 0.008046702 0.017615536 -0.026116969 0.014667021 0.013898548 -0.009534965 0.008190144
-0.012642357 -0.01964857 0.012480549 0.010731924 -0.03075713 0.04010172 -0.01613294 0.021695083
-0.03248459 0.0064863083 0.03838235 -0.024890916 -0.0073936414 0.03892613 -0.05337665 -0.0054257247
0.0010183688 -0.02406463 0.050476633 -0.014213345 0.016564619 -0.020680834 0.0015065661 -0.012306872
0.04098239 0.017633956 0.017943917 0.027788445 0.010527461 -0.022213096 -0.008585144 -0.0017276118
-0.019105941 0.0060685263 -0.007858438 0.005383382 -0.027794518 0.008772755 0.016000958 -0.003771635
-0.005743227 0.014273317 0.026154421 0.02478351 -0.031014672 -0.007937002 0.008471244 -0.009359712
0.004727049 -0.014503007 0.03174823 0.0026787196 0.0010274258 -0.018599747 -0.00055936346 0.021980936
0.0045273164 -0.004827888 -0.03278836 0.00297428 -0.0010186477 -0.0055413097 0.020388778 -0.010036022
0.03413451 0.036946338 0.004809621 0.021180654 -0.017017728 -1.782454e-05 0.009700916 -0.0064377664
00000000: d08e 1cbd dfba b93c 28ea 81bb 3a53 32ba
00000010: cdad a83c 41c2 1b3d ed4f d9b9 617b b93a
00000020: 7a1f b0bc f0ec 89bc 3664 cb3c f66c 09bb
00000030: 77d0 f03c f61f e43c 1f12 51bc b63a febb
00000040: 3038 a03a 2ef8 683c 5bcd 633c 8b4a 783c
00000050: 0e1e cb3c 42e7 80bc 5327 22bd bb40 a43a
00000060: 5c26 fbba 3c5b c4bb 3c54 a53a 6176 9dbc
00000070: cc04 e0bb 606b 3cbc 6132 cb3c 4102 37bb
00000080: b67b a9bb d28b 0e3c 56b2 af3c acbc 073d
00000090: 81af 083a 4e6e 6e3c f199 b63c 3312 11bc
000000a0: 6650 0ebc f690 a63b 0d2f e7bb c71d c8bc
000000b0: c567 4ebc 7223 883b 50c9 8a3c 5b3d cebb
000000c0: d8c5 d4bb da06 c33c cc63 84bc 5e74 c33c
000000d0: 4cb2 25bc 11b7 bfbc e3d7 453c 53fa 803c
000000e0: 8e2c 483b 85c5 b1bb 48d3 62bc 8c92 923c
000000f0: 79f3 ea3b 9321 f13b a266 d93c 06dc 60bc
00000100: 671a 94bc 1fea 1b3c ce3a 0cba 3101 c6bc
00000110: 4749 8f3c 818b 733c a884 8fbc 15f7 ba39
00000120: 16e8 99b9 cfbe f53b 1049 9f3c 3001 c6bc
00000130: 94b4 0a3d ca19 e93b e320 883c 71e6 24bd
00000140: 0f6f 66bb ec31 163c 3fb0 363c 9581 0d3d
00000150: 6a69 26bb 3d74 643c 5906 90bc dd74 9e3b
00000160: fc6c babc c93b a03c 6d18 c5bc b19c 3bbc
00000170: 3fd5 d6ba 4552 a13c f291 0f3d d033 c7bc
00000180: 8fa1 f8bb 97bd 9e3a 7ddc 633c 7afa 203d
00000190: 579c 24bc 9072 7abc bfc5 b93c 6f41 113c
000001a0: 55cd e2bb 9f9b a9bb e45b 433c bed8 7bbc
000001b0: 7e35 ac39 5ffc 6739 20b0 a13c 85a3 953c
000001c0: 966f 283c 792e 0bbc 7381 0c3c c4f3 d83c
000001d0: 290e 9cbc 8071 00bd 330d 903a 7efe a23c
000001e0: 222b fdbb 6ae9 6b3c 8ec7 263b 97f8 1b3d
000001f0: 88eb efbb 4ea9 1e3d d91d c2bb 6c09 1a3a
00000200: 62e1 08bb 4ea8 93bc a007 31bd a261 0e3c
00000210: 8c1b acbc 8a42 abbc c412 d13c 9843 0f3b
00000220: 7142 083d 9438 1a3d 653f 1abc 303e c83b
00000230: 314e 5abc c831 fdbb 482a bebc 0935 013b
00000240: 09bd 02bc 9dc1 d2bc d6c6 0dbb 5612 3bbc
00000250: 3442 a1bc afc6 a53c 6d4e 5f3c 3dcd a4bc
00000260: 3d11 0c3c e2cd 70b9 96e3 f23b 190a ad3c
00000270: 08cb 3a3c b681 2fbc 8d32 8fbc fbab 463c
00000280: b53e bdbb 106f 90bc 75f2 193c 6b0b bf3c
00000290: ef04 f53b 03c8 683c 636e afbc 5c57 b43c
000002a0: 0f97 bdbb 8ecf 99bc bd7f 35bb 84ef b03c
000002b0: 5ed6 ff3b 6797 95bb e2e3 34bc b9c1 a2bb
000002c0: d0dc bcbc 50d6 033c 754e 903c 41f3 d5bc
000002d0: f24d 703c bcb6 633c 8b38 1cbc f42f 063c
000002e0: e321 4fbc 0af6 a0bc 377b 4c3c f4d4 2f3c
000002f0: 60f6 fbbc b341 243d 3a29 84bc e3b9 b13c
00000300: 900e 05bd 198b d43b d036 1d3d 09e8 cbbc
00000310: 5c46 f2bb 0171 1f3d 79a1 5abd 47ca b1bb
00000320: c97a 853a 3023 c5bc 96c0 4e3d 17df 68bc
00000330: 86b2 873c da6a a9bc f877 c53a c3a2 49bc
00000340: 27dd 273d 1675 903c 1fff 923c 98a4 e33c
00000350: 5f7b 2c3c 3df8 b5bc b4a8 0cbc 0871 e2ba
00000360: 1084 9cbc 7dda c63b aec0 00bc 1567 b03b
00000370: 54b1 e3bc 9abb 0f3c 7114 833c 892d 77bb
00000380: ae31 bcbb a1da 693c cc41 d63c ca06 cb3c
00000390: 7b12 febc 330a 02bc f9ca 0a3c 7a59 19bc
000003a0: 5ce5 9a3b 059e 6dbc 6f0a 023d 758d 2f3b
000003b0: b0aa 863a 7f5e 98bc 3fa2 12ba 5d11 b43c
000003c0: e259 943b 4333 9ebb 164d 06bd 23ec 423b
000003d0: 2584 85ba e093 b5bb 5e06 a73c 216e 24bc
000003e0: a1d0 0b3d 0b55 173d 069a 9d3b 0d83 ad3c
000003f0: c368 8bbc e885 95b7 97f0 1e3c e6f3 d2bb

shared_layers.6.bias f4 [32]
-0.008829236 -0.0074208714 0.008935588 -0.008516479 -0.007833327 -0.007898788 -0.009696629 0.009679448
0.007825143 -0.009103521 -0.008237378 0.008370721 -0.010226352 0.010000639 -0.007902706 -0.0070838504
-0.007589822 0.007760842 -0.009213317 0.008567234 -0.008654255 -0.0069794497 -0.010242958 -0.008599272
0.008593789 0.007961785 -0.007486011 -0.00854789 0.0076263263 -0.0077938936 -0.0077270707 0.008854483
00000000: 80a8 10bc c82a f3bb 9366 123c b488 0bbc
00000010: 5b57 00bc eb69 01bc 9cde 1ebc 8c96 1e3c
00000020: 0735 003c ef26 15bc 11f6 06bc 5925 093c
00000030: 6e8c 27bc b8d9 233c 5a7a 01bc a51f e8bb
00000040: 0bb4 f8bb a94e fe3b 74f3 16bc 955d 0c3c
00000050: 94ca 0dbc deb3 e4bb 14d2 27bc f6e3 0cbc
00000060: f7cc 0c3c 2672 023c 364d f5bb 730c 0cbc
00000070: 43e6 f93b eb63 ffbb 5e33 fdbb 6512 113c

frustration_head.0.weight f4 [16, 32]
-0.020241056 -0.046924353 0.006076081 -0.03588041 -0.011632359 -0.010467636 0.0002828646 0.021613492
0.014715056 -0.02260758 -0.019055605 0.00780539 -0.0051218737 0.022055428 0.0010557289 -0.009037267
-0.023901928 0.047205452 -0.01994464 -0.009451299 -0.0023695095 -0.057452243 0.02226094 -0.031966466
-0.013661549 0.03499578 -0.0065196 -0.039280422 0.07012687 -0.025078578 0.023442186 0.040879212
-0.004889949 0.00670346 -0.040355172 0.043567754 0.0633081 0.0035615987 0.0271388 -0.02110778
0.010462405 0.0025942337 0.0073563433 0.005560894 -0.004109361 -0.058069874 0.008590796 0.008446618
0.03134343 -0.006163378 0.042925544 -0.035017706 0.048470467 -0.028286112 -0.0038783415 -0.003830426
-0.03476192 -0.020640526 0.04404082 0.019554773 -0.043555614 0.04483905 0.012454582 0.01432758
0.020168941 0.03472463 -0.054669075 0.0092303315 0.04895379 0.005808495 -0.00972815 -0.03263694
-0.0023068371 -0.001284057 -0.022613859 -0.019281538 0.005888353 -0.032518297 0.03618981 0.005313053
0.005408116 -0.027945867 0.023324158 0.012418593 0.012572925 -0.022029813 -0.008359775 0.024043519
-0.0009733591 0.008155268 0.039233338 -0.0012780306 0.0032431558 0.001393118 0.0031780575 -0.040764745
0.013540826 -0.025325475 0.022108851 0.021031134 -0.029320031 0.003638789 -0.023903271 -0.0010865765
0.0040525035 -0.043405175 -0.0010139964 0.017855478 -0.022818366 -0.008047512 -0.05013332 -0.055732436
-0.030922832 0.024902256 0.014119652 0.015785128 -0.024162272 -0.05070669 -0.036787145 -0.019125488
0.043535564 0.012517754 -0.03346401 0.0031516908 0.024918925 0.023239546 -0.0211017 0.0017372759
0.027477942 0.027871296 -0.0066319667 0.01131404 0.016050436 0.038838096 0.01926498 0.0009380787
-0.022091685 -0.028857427 -0.00084188365 -0.0163043 0.020975944 0.006241535 0.0013521578 0.028407719
0.04086068 -0.07910364 0.013468365 -0.039245024 0.004130283 0.024806842 0.020151293 -0.001977022
-0.0041544973 -0.021401035 0.025909444 0.024410265 0.0127136 0.0336333 0.032218836 0.0042291363
0.012068113 0.0075873146 -0.009584074 0.000387779 0.0044216993 -0.006832746 -0.006570605 -0.046412155
0.018560505 0.026342211 -0.022227474 0.006544748 -0.002999513 0.016932663 0.019388264 0.031890653
0.027497346 -0.022515163 0.037901916 -0.017275967 0.019750373 0.04160124 -0.011232408 -0.016952546
-0.021045886 0.0037602435 0.032263335 0.020443764 -0.050307404 -0.013712973 0.01827785 0.0052211843
-0.054507457 0.022589846 0.015485596 -0.030662678 0.012708411 -0.03993666 -0.01652272 0.001051632
-0.010976706 -0.014130843 -0.0379527 0.027146112 -0.028131371 0.008627093 -0.07907061 -0.003233517
-0.02075151 -0.03719227 0.009595401 -0.0073973364 -0.032262906 -0.048591115 -0.03974705 -0.010452716
0.0114347935 -0.01283589 -0.018224224 -0.0022096683 0.009377756 -0.037391327 -0.017011857 0.0039864546
-0.01071601 -0.01632258 0.030412791 -0.0010722904 -0.00047000265 -0.018147262 0.018628933 0.012214197
0.0024418307 0.014835705 -0.06008512 -0.016019152 0.008178002 0.022266686 -0.012804041 -0.066106744
-0.021722045 0.010236434 -0.030105812 0.031767417 -0.028203199 -0.0020788892 -0.01812308 -0.027619917
0.02908024 0.02142562 -0.0060965517 0.009351958 0.013781859 -0.033765547 -0.01986388 0.03300513
00000000: 92d0 a5bc c033 40bd dd19 c73b 56f7 12bd
00000010: a695 3ebc 7380 2bbc 724d 9439 c70e b13c
00000020: 6b17 713c 8833 b9bc 801a 9cbc 5bc4 ff3b
00000030: 64d5 a7bb 96ad b43c 6260 8a3a 0c11 14bc
00000040: facd c3bc 815a 413d f162 a3bc 9fd9 1abc
00000050: c649 1bbb 0b53 6bbd 935c b63c 45ef 02bd
00000060: b1d4 5fbc bc57 0f3d 5ea2 d5bb 82e4 20bd
00000070: ad9e 8f3d 9771 cdbc d409 c03c f670 273d
00000080: de3b a0bb b3a8 db3b 774b 25bd 1a74 323d
00000090: ada7 813d b669 693b 3052 de3c 39ea acbc
000000a0: 826a 2b3c 0504 2a3b 7b0d f13b 2938 b63b
000000b0: d2a7 86bb adda 6dbd 69c0 0c3c af63 0a3c
000000c0: f861 003d 29f6 c9bb b2d2 2f3d ba6e 0fbd
000000d0: f888 463d 47b8 e7bc c62b 7ebb e207 7bbb
000000e0: 8462 0ebd 5216 a9bc 2664 343d 5531 a03c
000000f0: 5f67 32bd 27a9 373d 4e0e 4c3c 3abe 6a3c
00000100: 5639 a53c 6a3b 0e3d aeec 5fbd d13a 173c
00000110: c583 483d 3055 be3b d262 1fbc 50ae 05bd
00000120: 4e2e 17bb ce4d a8ba b340 b9bc 51f4 9dbc
00000130: 16f3 c03b e831 05bd c43b 143d 1e19 ae3b
00000140: 9136 b13b bbee e4bc 4e12 bf3c 5b77 4b3c
00000150: abfe 4d3c de77 b4bc 70f7 08bc eaf6 c43c
00000160: 0629 7fba ac9d 053c 23b3 203d 9783 a7ba
00000170: 208b 543b 4899 b63a f546 503b eff8 26bd
00000180: 57da 5d3c 5f77 cfbc 9f1d b53c 7c49 ac3c
00000190: 9030 f0bc c078 6e3b cbd0 c3bc 756b 8eba
000001a0: ddca 843b a0c9 31bd 13e8 84ba a745 923c
000001b0: 95ed babc b6d9 03bc 9958 4dbd b247 64bd
000001c0: e151 fdbc d1ff cb3c 1d56 673c d04f 813c
000001d0: f5ef c5bc d1b1 4fbd 1eae 16bd 0ead 9cbc
000001e0: 5952 323d 4417 4d3c 8f11 09bd 998c 4e3b
000001f0: c622 cc3c dc60 be3c 79dd acbc 4eb5 e33a
00000200: 6c19 e13c 5852 e43c f850 d9bb 865e 393c
00000210: 347c 833c b214 1f3d 97d1 9d3c 65e9 753a
00000220: 9ff9 b4bc 6966 ecbc dbb1 5cba 9890 85bc
00000230: bed5 ab3c ca85 cc3b e33a b13a 4eb7 e83c
00000240: 875d 273d 1701 a2bd 6baa 5c3c 64bf 20bd
00000250: 5357 873b b837 cb3c 5314 a53c ed90 01bb
00000260: 7322 88bb 3951 afbc 0b40 d43c 09f8 c73c
00000270: b44c 503c 12c3 093d e6f7 033d 9194 8a3b
00000280: 56b9 453c 029f f83b 8506 1dbc d14e cb39
00000290: e7e3 903b 3ae5 dfbb 3b4e d7bb ac1a 3ebd
000002a0: 330c 983c 9fcb d73c 6416 b6bc 5375 d63b
000002b0: 7a93 44bb 5eb6 8a3c 23d4 9e3c c69f 023d
000002c0: 1d42 e13c b871 b8bc 0a3f 1b3d 5486 8dbc
000002d0: 89cb a13c 1066 2a3d 2208 38bc 11e0 8abc
000002e0: 6c68 acbc 6b6e 763b 8f26 043d ae79 a73c
000002f0: 230f 4ebd 61ac 60bc 6ebb 953c 7816 ab3b
00000300: 3643 5fbd 570e b93c 4cb7 7d3c 4c30 fbbc
00000310: f036 503c a094 23bd a85a 87bc ead6 893a
00000320: a4d7 33bc 0d85 67bc 4a74 1bbd 8661 de3c
00000330: c373 e6bc a758 0d3c c6ef a1bd 6ae9 53bb
00000340: 12ff a9bc ec56 18bd 0736 1d3c 5b65 f2bb
00000350: 1c26 04bd 7a07 47bd cdcd 22bd de41 2bbc
00000360: 0059 3b3c a04d 52bc f84a 95bc 15d0 10bb
00000370: 29a5 193c a627 19bd 735c 8bbc cea0 823b
00000380: 3492 2fbc eeb6 85bc 3f24 f93c 188c 8cba
00000390: b06a f6b9 91a9 94bc b49b 983c 0e1e 483c
000003a0: 1f07 203b 7511 733c d11b 76bd 993a 83bc
000003b0: 07fd 053c a068 b63c 0ac8 51bc f962 87bd
000003c0: 6ef2 b1bc b7b6 273c 77a0 f6bc 8d1e 023d
000003d0: 650a e7bc f93d 08bb da76 94bc 2a43 e2bc
000003e0: af39 ee3c c884 af3c 95c5 c7bb f438 193c
000003f0: 4ecd 613c be4d 0abd 93b9 a2bc 6330 073d

frustration_head.0.bias f4 [16]
0.0063800924 -0.0068831346 -0.008220407 0.0065106787 -0.0063682552 -0.00726619 0.006734959 0.0066361795
-0.007263542 0.0065651042 0.006789573 0.0066568027 0.0066347653 -0.007854553 0.008412269 0.0064005326
00000000: 1810 d13b eb8b e1bb e3ae 06bc 8857 d53b
00000010: ccac d0bb 3819 eebb eeb0 dc3b 4f74 d93b
00000020: 0203 eebb 1620 d73b 117b de3b 4f21 da3b
00000030: 7268 d93b 62b0 00bc 9dd3 093c 8fbb d13b

frustration_head.2.weight f4 [1, 16]
0.07807868 -0.03198923 -0.017725721 0.05760725 -0.0857481 -0.024244146 0.04021228 0.043316677
-0.024377111 0.04947404 0.038985405 0.043149114 0.043751027 -0.01982401 0.01643991 0.07474613
00000000: b7e7 9f3d 2407 03bd 8835 91bc 94f5 6b3d
00000010: b39c afbd a99b c6bc a2b5 243d d46c 313d
00000020: 82b2 c7bc 4aa5 4a3d 29af 1f3d 20bd 303d
00000030: 4734 333d f665 a2bc fdac 863c 8014 993d

cognitive_load_head.0.weight f4 [16, 32]
0.018991733 0.014344532 -0.006089862 0.011338875 0.032109667 0.015145814 0.019958727 -0.03271138
-0.007799281 0.010470326 0.045516185 0.015356567 -0.0023791192 -0.027372831 0.022248909 0.008823617
0.027661357 -0.008750315 0.036396828 -0.017301172 -0.01267134 -0.007036852 0.051133618 0.03619638
-0.0073704286 -0.054719757 0.018455366 0.015217615 -0.024380015 0.024567502 0.04671866 -0.0148414085
0.011831965 -0.007834064 0.007946091 0.020585978 -0.02662594 0.007911922 0.018687157 -0.035800725
0.023250414 -0.038832106 0.04479469 0.002548138 -0.023389027 0.023864854 0.0006346772 -0.016144667
-0.009083136 -0.030206813 0.019313442 -0.041667897 0.025516381 0.0023989577 0.016705561 -0.007132837
-0.013627502 0.0006948315 0.03766338 -0.021233207 -0.02676428 0.01775721 -0.024978686 -0.00504451
-0.024365772 -0.031299308 -0.0013778972 0.0035040353 -0.02835462 -0.014988133 -0.01661697 0.030851616
0.019953286 -0.060388964 -0.03436967 0.02028348 -0.0019665228 -0.0039969794 -0.054742705 0.009954235
-0.010833167 0.033918217 -0.019860584 -0.00029868452 -0.016673012 -0.026552018 -0.029116929 -0.030449271
0.04546679 0.020523801 0.00551948 -0.01844177 0.023255587 -0.010150973 0.007792541 0.016972296
-0.032509442 -0.019443711 0.03351809 -0.015385603 -0.031254232 -0.033919074 -0.024868868 0.0077865035
0.008394493 -0.02025746 -0.039268147 -0.0077545247 0.030565228 -0.008868825 -0.002249835 -0.011054176
-0.03392266 0.0032007105 0.03199298 -0.010090167 -0.018590422 -0.00709269 -0.014517429 0.019227073
-0.0034334657 0.025126535 -0.051908627 -0.017823135 0.004156744 -0.03131661 -0.006502119 0.025537934
0.0006808694 0.0152583355 0.010610139 0.003994716 0.0045710765 -0.016891295 -0.04924239 0.014417507
0.025856392 -0.01610903 -0.019218696 -0.012898603 -0.03255375 0.026238823 -0.044491775 -0.013105992
0.039634306 -0.00018305836 -0.02242419 0.025536006 0.00024877946 -0.0056751897 -0.030271951 0.0056693074
0.024927838 -0.0100793 0.02430083 -0.002136567 -0.0016807168 -0.0010882737 0.0015192627 0.00574524
0.021640396 0.021754263 -0.02050826 -0.0044002538 0.0054772818 0.04586293 0.015712809 0.02005178
-0.00324265 -0.02983083 0.039116304 0.005151128 -0.0021717716 -0.037455335 0.050990004 0.024058407
0.044762116 0.00857662 0.02456114 0.005935726 0.012445579 -0.013107693 -0.0104561085 0.0065737464
-0.025395956 -0.016474493 0.011227153 0.0050471085 0.0071007414 0.06334413 -0.06053813 0.003743162
0.010134538 -0.030384649 0.008773308 -0.022733612 -0.0023847974 0.0007678936 -0.0038545514 0.037518494
-0.007838212 0.011971338 0.005537066 -0.0067595155 0.009623392 -0.0068416954 -0.028830474 -0.0028221512
0.019425817 0.0066849366 -0.011870825 0.002106773 0.008618469 -0.036931798 0.029608026 0.0034493166
-0.029678997 0.02225094 -0.028234435 -0.014876139 0.0114330975 0.03404568 -0.023326656 -0.00740717
0.026973765 0.0024660728 0.02406851 -0.01627638 -0.0086084865 -0.016142562 0.013258445 0.045686003
0.012317611 0.0023329828 -0.008972746 0.0026713691 0.007862982 0.058633007 -0.030828224 -0.020857219
-0.008277129 0.017423611 -0.010379898 0.02085464 0.009502409 0.0010394171 -0.022527112 -0.039319865
0.0068130377 -0.016104516 -0.015363308 0.030027304 0.04565139 0.018234752 0.010633987 -0.015628133
00000000: 8d94 9b3c 5405 6b3c 778d c7bb b0c6 393c
00000010: 6d85 033d 2626 783c 7c80 a33c 5efc 05bd
00000020: 1c91 ffbb bb8b 2b3c 2e6f 3a3d 1c9a 7b3c
00000030: ffea 1bbb fd3c e0bc 5843 b63c ef90 103c
00000040: 129a e23c 7b5d 0fbc d714 153d 30bb 8dbc
00000050: 749b 4fbc 6595 e6bb 7c71 513d a842 143d
00000060: a383 f1bb d321 60bd b52f 973c 4e53 793c
00000070: 99b8 c7bc c941 c93c 115c 3f3d 6129 73bc
00000080: dcda 413c 725a 00bc 5230 023c eda3 a83c
00000090: a51e dabc 02a1 013c cf15 993c c8a3 12bd
000000a0: a777 be3c 6a0e 1fbd a37a 373d a9fe 263b
000000b0: 589a bfbc 3a80 c33c 7760 263a d241 84bc
000000c0: 6fd1 14bc 4774 f7bc 3937 9e3c f5ab 2abd
000000d0: bb07 d13c d537 1d3b 1ada 883c 93ba e9bb
000000e0: e345 5fbc 5a25 363a eb44 1a3d 43f1 adbc
000000f0: c340 dbbc 9277 913c 1aa0 ccbc 6b4c a5bb
00000100: ba9a c7bc b433 00bd 8f9a b4ba f5a3 653b
00000110: f347 e8bc c990 75bc 5020 88bc 87bc fc3c
00000120: 1375 a33c 6b5a 77bd 36c7 0cbd 8a29 a63c
00000130: c7e0 00bb 18f9 82bb e339 60bd 1617 233c
00000140: 987d 31bc d4ed 0a3d aab2 a2bc c298 9cb9
00000150: d795 88bc 9e83 d9bc a086 eebc c070 f9bc
00000160: 633b 3a3d 8821 a83c c1dc b43b 3213 97bc
00000170: 8082 be3c 4450 26bc 9258 ff3b 7c09 8b3c
00000180: 9f28 05bd 6b48 9fbc 444a 093d e513 7cbc
00000190: 7004 00bd baee 0abd ccb9 cbbc ed25 ff3b
000001a0: 0e89 093c f9f2 a5bc a3d7 20bd ab19 febb
000001b0: ee63 fa3c 8c4e 11bc f871 13bb 931c 35bc
000001c0: 7df2 0abd 03c3 513b 120b 033d 3a51 25bc
000001d0: f14a 98bc cc69 e8bb 83da 6dbc 1882 9d3c
000001e0: ff03 61bb 2ad6 cd3c 249e 54bd d301 92bc
000001f0: 4c35 883b d845 00bd ba0f d5bb ee34 d13c
00000200: 5f7c 323a 19fe 793c 26d6 2d3c 1be6 823b
00000210: f8c8 953b 9d5f 8abc 63b2 49bd 6837 6c3c
00000220: c9d0 d33c 16f7 83bc 8770 9dbc aa54 53bc
00000230: 1557 05bd cdf2 d63c 023d 36bd 84ba 56bc
00000240: 9557 223d 5bf3 3fb9 efb2 b7bc e330 d13c
00000250: 9d6e 8239 f1f6 b9bb e2fc f7bc 99c5 b93b
00000260: 7735 cc3c a623 25bc 8912 c73c a505 0cbb
00000270: 7f4b dcba 68a4 8eba ff21 c73a 9142 bc3b
00000280: 3347 b13c ff35 b23c f000 a8bc 0130 90bb
00000290: c57a b33b c5da 3b3d 26b8 803c a143 a43c
000002a0: a482 54bb c95f f4bc 6b38 203d cbca a83b
000002b0: 4854 0ebb c46a 19bd e5da 503d 2316 c53c
000002c0: 7b58 373d f484 0c3c 7234 c93c 7b80 c23b
000002d0: 8be8 4b3c a6c1 56bc 1950 2bbc 9568 d73b
000002e0: 2e0b d0bc 84f5 86bc 18f2 373c 3762 a53b
000002f0: 56ad e83b 91ba 813d d5f6 77bd d64f 753b
00000300: 550b 263c 3ae9 f8bc ecbd 0f3c d73b babc
00000310: 434a 1cbb 784c 493a a49c 7cbb feac 193d
00000320: d86b 00bc 6e23 443c 4770 b53b ed7e ddbb
00000330: 6eab 1d3c 4d30 e0bb e32d ecbc d7f3 38bb
00000340: e422 9f3c 500d db3b d97d 42bc c911 0a3b
00000350: 7b34 0d3c cc45 17bd 888c f23c ee0d 623b
00000360: 5e21 f3bc 9a47 b63c e74b e7bc 0dbb 73bc
00000370: e351 3b3c 7c73 0b3d 8b17 bfbc d8b7 f2bb
00000380: 16f8 dc3c d69d 213b 532b c53c 0b56 85bc
00000390: 9c0a 0dbc 683d 84bc f339 593c 3f21 3b3d
000003a0: cecf 493c f5e4 183b 6d02 13bc 2312 2f3b
000003b0: bdd3 003c 2a29 703d 798b fcbc c2dc aabc
000003c0: cc9c 07bc f6bb 8e3c 7310 2abc 5ad7 aa3c
000003d0: feaf 1b3c 0d3d 883a c78a b8bc de0d 21bd
000003e0: e73f df3b 9eed 83bc 62b6 7bbc d2fb f53c
000003f0: f4fc 3a3d 0c61 953c 2d3a 2e3c 9206 80bc

cognitive_load_head.0.bias f4 [16]
-0.0056349253 -0.007297154 0.0061345934 0.0057153734 0.005591116 -0.0062754382 0.0055593196 0.008189572
0.0073084002 -0.0057074735 -0.0060922136 -0.0043522413 0.0058666384 -0.006160394 -0.0049543837 -0.005995659
00000000: 2ea5 b8bb f71c efbb b304 c93b 0748 bb3b
00000010: ae35 b73b 31a2 cdbb f42a b63b 8e2d 063c
00000020: 4e7b ef3b c205 bbbb 31a1 c7bb 3f9d 8ebb
00000030: ee3c c03b 21dd c9bb 6258 a2bb 3c77 c4bb

cognitive_load_head.2.weight f4 [1, 16]
-0.0659386 -0.011476593 0.025906637 0.053000182 0.07723532 -0.022885656 0.059591353 0.01207222
0.015024514 -0.054701757 -0.027682979 -0.0054545677 0.02601004 -0.026752124 -0.015426438 -0.031817645
00000000: d10a 87bd 5208 3cbc 283a d43c b816 593d
00000010: 8d2d 9e3d b37a bbbc 1016 743d 90ca 453c
00000020: 6129 763c f30e 60bd 6ac7 e2bc 3bbc b2bb
00000030: 0213 d53c 4527 dbbc 2cbf 7cbc 3853 02bd
