ncde/best_model_cde.pth (torch, 502811 bytes, 9 tensors)

initial.weight f4 [64, 12]
00000000: 167e 3d3e 7a3b 493e dc2b 62bd 3131 3c3e
00000010: 7d9c 70bc 9e74 293e f134 d23c b7a2 913e
00000020: 0a5c 213d 6d9e 6ebe 28bb b6bd 5056 893e
00000030: 2a8d 65bd 075b 84bd f3f9 75be 9eb4 15be
00000040: 60dc 3cbe aadb 803d b7f3 8e3e 4116 d7bc
00000050: 86ec 0c3d e9a4 1cbd a6fa 45be c137 1fbe
00000060: 08d7 353e 668e 32be e703 813e fa8c c33d
00000070: bdb9 73be 421c 523d f112 16be 448d 923d
00000080: 28b5 5ebe 1155 fb3a 29e5 523e 187b 92be
00000090: bdc2 00be 328b 26be c72a 32be c8db 0ebe
000000a0: 7131 3a3e ecb2 623d 7885 8d3d 9b46 9ebd
000000b0: f6b0 333b 4af2 4dbe de7a 1a3d a513 c7bc
000000c0: 0713 c3bd b895 393c 5229 813e 22c1 d8bd
000000d0: c783 2b3d e91f 1b3e 7262 d23d fdf0 7c3e
000000e0: 3230 1dbd 822e f5bd a164 be3d ad74 14be
000000f0: 4dee e5bb 304f 2fbe a304 863e faa5 053e
00000100: 0584 853e 247e 643e 34c9 e13c feaa 08bc
00000110: fcb9 143e e1f3 9cbd 42fc a8bd 32c8 c9bd
00000120: 776a 45bd d43c 2f3e 4868 6a3e d68a 573e
00000130: ca1d 86be 111f 463d ef63 89be f25d 7dbe
00000140: 6545 82be a338 4f3e 5574 6d3e 45c2 253e
00000150: 585a 7b3e 3768 e9bd 8a39 663d f493 8d3e
00000160: 3922 2abe eaa2 5c3e ca9b 91be 25bf 1ebe
00000170: 0efc 373e c39a 8c3e 9704 15be 9e75 863e
00000180: 7ce5 923e 624e 20be db4d 83be c117 7d3e
00000190: 920d 1ebe 855f 023e 52f7 2dbd 343c 863e
000001a0: 2f35 8d3e e9e8 033e 451b 083e 0eaa 87be
000001b0: 6630 efbd b764 1abe 7638 143e a201 3bbe
000001c0: 1feb adbd 534f 8cbd 752a 84bb ff22 743e
000001d0: 9c12 7d3e fc72 403e 0f39 83be 1c90 8abc
000001e0: 5b7d e23d c953 c8bc fbc7 8bbe 2422 87be
000001f0: 3a25 843e ec08 bdbd cad8 aa3d 8b88 15be
00000200: f5cb d53d 4e5f 7abe dd2b 6abc 152e 4fbe
00000210: 74c2 1fbe ac81 5a3e 2267 8b3e 4403 593e
00000220: 1904 75be 881a 8b3d 46a6 c4bc fa48 5ebd
00000230: c6b3 8cbe af8b 4c3d d7d2 0a3e 753f ccbd
00000240: 5fb1 843e cbee d23d a18e 60be ecde f23d
00000250: 48d9 223e c14f 903e a3df 453e a066 ca3d
00000260: 2ffa 4dbe a1d1 1dbe 2892 693e 6965 883e
00000270: e47e e5bd ba51 363e ed82 91bd 55bc 09bd
00000280: 4f7a 173e d93c 2fbe b62e 0bbe f74e 753d
00000290: eb13 643e 350c 19be 3db3 6f3c 1bdc f2bc
000002a0: 450b 2abe c367 1bbc 897f c33c 03c8 c4bd
000002b0: d220 cabd b727 04bc 0afd e13d ca8b 30be
000002c0: 3ff8 1b3e f81e bf39 46d9 32be b491 da3d
000002d0: 35c9 7f3e bfb7 12be 52ee 013e f3b9 393e
000002e0: 8e0b 0a3e cd77 623e 9c1e 26be 0b69 e7bc
000002f0: 2aad ab3d 0095 563d 59f8 053e dd83 dabd
00000300: c2bc 7c3b eaf7 383e 22bb 7cbe 74a0 84bc
00000310: 428e 803e cc0f a4bd 1e73 f0bd 47ad 2fba
00000320: 3f87 753e b157 b93d eda9 1e3d bf22 86be
00000330: a4c3 be3d 83cf 563e 782d b43d c0d7 7d3e
00000340: 2e22 3b3e 9f64 64bd 71f3 133d e635 08bd
00000350: 78b3 1bbe b0fd e0bd 4c1a 8abd a2e1 6ebe
00000360: 20ba 36be b49f 763d 5f6b 4dbc e46b 093e
00000370: 76c1 063e 5804 833e a550 91bd 2227 e43c
00000380: 63e8 cfbd 420e 073e 7061 713e a764 043e
00000390: b7b2 8cbe 3e85 623e d41f 7d3e d7af 3dbe
000003a0: c644 7a3d 4423 43be 6783 9bbc f8f6 edbd
000003b0: 7327 81be a723 b4bd 56d7 763e dac7 863e
000003c0: c5d3 263e 289c cb3d c46f 75be 30c2 b1bd
000003d0: 4a4c 77be 7bf9 4d3e 2698 813e 5791 58be
000003e0: 5710 f43d 8cbb 82be 453e 093e ae1f 7abe
000003f0: 4f6f 8cbe f6cd 27bd f58e 3ebe a0a7 8d3e
0.18505129 0.19651595 -0.05521761 0.1837814 -0.014685747 0.16548392 0.02566001 0.28444454
0.039394416 -0.23302622 -0.08922416 0.26823664 -0.056042828 -0.064626746 -0.2402113 -0.14619681
-0.18443441 0.062918976 0.27920315 -0.026255729 0.034405254 -0.038243208 -0.19333896 -0.15548612
0.17757809 -0.17437133 0.2519829 0.095483735 -0.23801322 0.05129648 -0.14655663 0.071558505
-0.21748793 0.0019175132 0.2059523 -0.28609538 -0.12574287 -0.16264036 -0.17399131 -0.13951027
0.18182923 0.055346414 0.06910223 -0.07728311 0.002741871 -0.20111957 0.03771483 -0.02430136
-0.095251136 0.0113272 0.25226837 -0.10583712 0.04187372 0.15148892 0.10272683 0.24701305
-0.03837604 -0.11971761 0.09296537 -0.14497633 -0.007016933 -0.17120051 0.26175413 0.13051596
0.26077285 0.22313744 0.027561761 -0.008341549 0.14524072 -0.07663704 -0.08251239 -0.09852637
-0.048197236 0.17113048 0.22891343 0.21049055 -0.26194602 0.04836947 -0.26834056 -0.24742869
-0.2544357 0.20236449 0.23188908 0.16187389 0.24546182 -0.113968305 0.056207217 0.27651942
-0.16614617 0.21546522 -0.2843917 -0.15502603 0.17967245 0.27461824 -0.14552532 0.2626161
0.28690708 -0.156549 -0.25645337 0.24716093 -0.15434864 0.1273175 -0.04247219 0.26217806
0.27579638 0.12881817 0.13291653 -0.2649693 -0.11679153 -0.15077482 0.14474663 -0.18262342
-0.084921114 -0.068510674 -0.0040333816 0.23841475 0.2471413 0.18793863 -0.2562947 -0.01691442
0.11059066 -0.024454014 -0.2730101 -0.26393235 0.25809652 -0.09230217 0.083421305 -0.14602868
0.10439292 -0.24450418 -0.014292684 -0.20232423 -0.15601522 0.21338528 0.27227122 0.21192652
-0.23927344 0.0679217 -0.024005067 -0.054268815 -0.27480906 0.0499379 0.13556992 -0.09973041
0.25916573 0.102994524 -0.21929409 0.11858925 0.15903199 0.28185847 0.19323592 0.098828554
-0.20114969 -0.15411998 0.2280966 0.2663987 -0.11205843 0.17804614 -0.0710505 -0.033626873
0.14792751 -0.17113055 -0.13592038 0.05988976 0.22273223 -0.14946063 0.014630136 -0.02964597
-0.16605861 -0.009485188 0.023864524 -0.09608462 -0.09869541 -0.008066109 0.110345915 -0.17240825
0.15231417 0.00036453432 -0.17465696 0.10672322 0.24979098 -0.14327906 0.12688568 0.1813734
0.1348097 0.22116013 -0.16222614 -0.02824833 0.08382638 0.05238819 0.13083018 -0.10669682
0.0038564657 0.18063322 -0.2468076 -0.016189791 0.25108534 -0.080108255 -0.11740707 -0.00067015406
0.23977374 0.09049929 0.038736273 -0.26198384 0.09314659 0.20977597 0.08797735 0.24789333
0.18274757 -0.055760022 0.036120836 -0.033254527 -0.1520518 -0.10985887 -0.06743297 -0.2332826
-0.17844439 0.0602109 -0.012537806 0.13420063 0.13159737 0.25589252 -0.0709546 0.027850691
-0.10151746 0.13189033 0.23572326 0.12929021 -0.274801 0.2212114 0.24719173 -0.18524109
0.061100744 -0.19056422 -0.018983556 -0.11619371 -0.2522541 -0.08795863 0.24105582 0.2632435
0.16291721 0.09941894 -0.23968416 -0.086796165 -0.24150196 0.201147 0.25311393 -0.21149193
0.11917179 -0.25533712 0.1340266 -0.24426147 -0.27428672 -0.040967904 -0.18609221 0.2766695

initial.bias f4 [64]
00000000: 97ed 583b 1f50 89be 0bd9 6c3e b5ee a23d
00000010: d6bc d33d 80ec 05bc 7081 cebc 6b99 75be
00000020: 0140 d63d f405 fcbc 789c 52bd 1d0a a83d
00000030: 9b74 4a3e 2de9 30be 6659 16be 2093 583d
00000040: 4e39 29be d824 35be a4f5 e0bd 3ef6 903e
00000050: accb 2a3d 2183 8f3e fac2 5e3d 19de 56be
00000060: d7ef 60be 233b 37be 907a 353e de77 c4bb
00000070: 4c9f b6bc b8d1 2dbe 1945 94bc bf00 8bbe
00000080: 31eb 723d 1afe 743d 1da0 39bd 3d81 cebd
00000090: 073d d53d aa24 43be 9824 e73d 7e19 fabd
000000a0: 7e0b e03c 0bd3 2b3e f265 6dbe 8380 133d
000000b0: 5b65 103d 68c1 93be 6950 2cbd f78b 29be
000000c0: 75fe 49be 848d f53d 532d 3fbe 072a 893e
000000d0: 7bca 0cbe 8897 ac3d a4cb 303e 168a a73d
000000e0: e6f1 14be 298d 7cbd 0455 ffbd 5201 4dbe
000000f0: 5ed9 dfbd 18e7 89bd 8084 e1bd e47f 6dbe
0.00331006 -0.2681894 0.2312967 0.07955686 0.10338752 -0.008174062 -0.025208205 -0.23984306
0.104614265 -0.030764557 -0.05141875 0.08205054 0.19771044 -0.1727645 -0.1468254 0.052874684
-0.16525766 -0.17689836 -0.10984352 0.28312868 0.041698143 0.2802973 0.054385163 -0.20983161
-0.21966492 -0.17893653 0.17722535 -0.0059957346 -0.022292756 -0.16974533 -0.018099355 -0.27149007
0.059306327 0.059812643 -0.04531871 -0.10083244 0.10412031 -0.19056955 0.112862766 -0.122118935
0.02734923 0.16779725 -0.2318342 0.03601123 0.03525291 -0.28858495 -0.042068873 -0.16557299
-0.19725974 0.119898826 -0.18669634 0.26789877 -0.13749115 0.0842734 0.17265183 0.08180635
-0.14545402 -0.06165806 -0.12467387 -0.20020035 -0.109301314 -0.06733531 -0.110116005 -0.23193318

func.net.0.weight f4 [128, 64]
00000000: b066 dfbd e089 c63b 543a 223d 948d 8bbd
00000010: 30c9 b93c 9094 db3d 4093 8e3d c664 b23d
00000020: c00c 473c 9833 463d 20a4 183d 20d9 993c
00000030: fc7f 51bd c4d4 43bd 80be af3d d4cf be3d
00000040: 0827 acbd ece5 3cbd d68d bebd 70e0 933d
00000050: 08d5 6f3d 9608 9ebd 00ff eb3b be8e d8bd
00000060: be01 bfbd b0b2 c93d d043 143d f8ff e9bd
00000070: 72d7 a33d be09 a43d 640a bdbd 7e70 d63d
00000080: c00b 81bb 6ed1 9ebd 70e0 37bd f8d6 7d3d
00000090: 04f5 c53d 20a7 7abd 6215 82bd 889c de3d
000000a0: a222 a4bd aca6 fe3d 5c5b 23bd 96d7 f5bd
000000b0: 0851 d7bc cc0b b4bd 9063 cfbd 7800 e0bd
000000c0: c80a 60bd 068a b3bd 803e fe3b 8014 b7bd
000000d0: f86e aebc cc8a 29bd da40 d1bd 7c72 33bd
000000e0: 7c94 b03d bcd9 8fbd 90be bf3d 4009 a63c
000000f0: eee0 d0bd 1ca3 723d acf7 7f3d 1286 c1bd
00000100: bac9 a63d f8f9 edbd 642a 92bd 7e28 9abd
00000110: 403f 553b fe4d 983d 9090 173c fcf6 6c3d
00000120: 880b ab3d 90c5 5b3d e8bd 5cbd 98a1 89bd
00000130: c00f efbb ec51 17bd ea1e 973d 241d d1bd
00000140: 2cd7 2bbd e8a9 3dbd f821 abbc f0dd e0bd
00000150: 90ff 293c 7075 083d 8628 a23d 8e75 f93d
00000160: 2836 97bc 6e40 e5bd d49f 67bd daab b1bd
00000170: 90aa cc3c 268c d7bd 7cc6 1abd d067 2dbd
00000180: dce2 dfbd c4eb 623d d00c 103d 5c3c 7f3d
00000190: 5a2b b63d ec21 6b3d 5022 7fbd 2049 903d
000001a0: c87f 263d 0e8c bb3d e414 44bd ee53 df3d
000001b0: c8d3 fa3c d082 45bd c036 5d3b 78a7 c7bc
000001c0: 687d 0d3d fc72 18bd 18a5 f93c c61f d03d
000001d0: 84ea cf3d 2011 b0bc 8cb1 4fbd ee3c f93d
000001e0: c2b7 c53d 847c 1fbd 80b7 adbd ac24 9b3d
000001f0: 1648 a6bd ae14 fa3d 7e48 c83d 504f cb3d
00000200: 34f0 3ebd d47d 0bbd ba48 e6bd b2ce e73d
00000210: e0a5 fdbb 309e ad3c 90c5 503c d886 443d
00000220: 3417 97bd c015 b33d f027 42bd e854 50bd
00000230: 8047 8a3a b492 c93d 849d ebbd f0a9 f43c
00000240: 9ca0 e8bd 6236 bcbd 6a8b eabd 9a13 b4bd
00000250: e48b 1fbd b8e6 f8bd a0fe ce3b 6e7e c13d
00000260: 3ebe c2bd 60c1 c9bc 60eb d2bb 0437 35bd
00000270: 1076 4b3c 707c 1abd c88c 59bd 907d ffbc
00000280: 60a4 eabd c254 d2bd 6ce2 f43d 4c08 eebd
00000290: 6ed5 a7bd 8029 8cbb a0ef bcbb 20f0 eb3c
000002a0: ded8 c73d 946e d43d e010 fcbb fa7a a0bd
000002b0: d050 72bd 1816 953c 58af fc3c 80d1 a93a
000002c0: b46f c63d e8db d0bd 7260 cc3d e85e e6bd
000002d0: 38a8 27bd 9057 9d3d 162c 88bd 2043 ddbc
000002e0: 58d8 e6bc b4be 1dbd a060 e33b d0c2 d6bc
000002f0: 8248 fc3d 4ca9 b63d 4c4c 4d3d 60cf 8dbc
00000300: 1076 4c3d c82c f2bc 50c7 f2bd 8839 71bd
00000310: 4ee3 ffbd baa7 df3d 1e87 bc3d 4689 f6bd
00000320: 60fe cbbc 86db a9bd b8fd cfbd 8c83 87bd
00000330: a4c7 b1bd c424 c03d 6878 c43c 5e18 803d
00000340: 9a63 b1bd b03d 963c 34bc b73d 885f c53d
00000350: 783a 983c 1065 c8bc b0bb c8bc 80ea 0abd
00000360: 00e3 abbb e477 953d 4079 a7bc 72e8 8c3d
00000370: 1eeb a53d 4a3a 813d 54c2 5fbd 56a3 9c3d
00000380: 4e8b cdbd a442 f13d a0a4 9a3c 44de e33d
00000390: d02a b9bc c097 bd3d c0b9 583b 1ae9 973d
000003a0: c428 2f3d 364a f0bd 7cf8 003d 4cbf 39bd
000003b0: b660 c53d 10fd 21bc 4017 afbb ea7a 9cbd
000003c0: de62 cc3d 8c77 b4bd 500f 9f3c 1065 373d
000003d0: ece0 de3d b899 003d 62f1 cd3d 509a c5bc
000003e0: 2266 c6bd 90e2 64bd 1411 8cbd 0057 94bc
000003f0: a428 ea3d d016 9a3d 94a4 eabd 20a1 753d
-0.10908258 0.0060589164 0.039606407 -0.06814113 0.022678941 0.107216954 0.069616795 0.08710627
0.012149036 0.048389047 0.037265897 0.018780291 -0.051147446 -0.04781033 0.08581257 0.09316984
-0.08405882 -0.046117708 -0.09304397 0.072205424 0.05855277 -0.077164814 0.007202029 -0.10574101
-0.09326504 0.09848535 0.036197484 -0.11425775 0.08000077 0.08009671 -0.092304975 0.10470675
-0.0039381683 -0.07754789 -0.044891775 0.06197259 0.09665874 -0.06119454 -0.06351735 0.108697
-0.08014418 0.12434134 -0.03988205 -0.120040104 -0.026283756 -0.087913126 -0.10126412 -0.109375894
-0.05469778 -0.0876656 0.0077589154 -0.08939457 -0.021293148 -0.041392133 -0.102174476 -0.043810353
0.08622071 -0.070239514 0.09362519 0.020268083 -0.10199152 0.059237584 0.062492058 -0.094494
0.08143945 -0.116199434 -0.071369916 -0.075272545 0.003253892 0.07436751 0.009250775 0.05785273
0.08351809 0.053655207 -0.053892046 -0.06720275 -0.0072955787 -0.03694336 0.07378943 -0.10210636
-0.04195325 -0.046304613 -0.020890221 -0.10979831 0.010375872 0.033315122 0.079178855 0.12180625
-0.01845844 -0.111939296 -0.05654891 -0.08675356 0.024983674 -0.10524778 -0.037786946 -0.04233533
-0.10931942 0.055400625 0.03516847 0.062313423 0.088949874 0.057405397 -0.062288582 0.070451975
0.040649205 0.09157573 -0.047871485 0.1090468 0.030618563 -0.048220456 0.0033754557 -0.024371848
0.034543425 -0.037219033 0.03047423 0.1016231 0.10152152 -0.02149254 -0.05070643 0.121698245
0.0965419 -0.038937107 -0.084822655 0.07575354 -0.08119218 0.122109756 0.09779452 0.09927237
-0.046615794 -0.034055546 -0.1124434 0.11318721 -0.007740721 0.021193594 0.012742415 0.04798016
-0.073774725 0.08744383 -0.04740137 -0.050862223 0.0010549873 0.098424345 -0.11504653 0.029866189
-0.11358759 -0.0919006 -0.11452372 -0.08792801 -0.03895177 -0.12153381 0.0063169748 0.09447943
-0.09508942 -0.024628341 -0.0064367503 -0.04424192 0.012418285 -0.03771633 -0.053112775 -0.031187803
-0.11457133 -0.102700725 0.11957249 -0.11622676 -0.08195005 -0.004277408 -0.00576587 0.028801024
0.09758161 0.103726536 -0.0076924413 -0.07835956 -0.0591591 0.018199012 0.03084533 0.0012956113
0.096892744 -0.10198194 0.09979333 -0.11248571 -0.04093191 0.07682717 -0.06649034 -0.027009547
-0.028179333 -0.038511947 0.006939009 -0.02621594 0.12318517 0.089190096 0.05012159 -0.017310798
0.04991728 -0.029562369 -0.11854422 -0.058892757 -0.12494527 0.10920663 0.09205459 -0.120379016
-0.024901569 -0.08293824 -0.10155815 -0.066168875 -0.086806566 0.093820125 0.023983195 0.06254648
-0.086615756 0.018339962 0.08971444 0.09637362 0.018582568 -0.024462253 -0.024503559 -0.033915043
-0.0052455664 0.07298258 -0.020443559 0.06880273 0.08101486 0.06309946 -0.054628685 0.07648341
-0.10036336 0.11780289 0.018877327 0.11126378 -0.022603422 0.0925746 0.00330697 0.074175075
0.042763487 -0.117329046 0.031486973 -0.04534845 0.09637587 -0.009886995 -0.005343348 -0.076406315
0.09979795 -0.08811864 0.019416481 0.044774115 0.10882744 0.031396598 0.10055806 -0.024121433
-0.09687449 -0.05588013 -0.06839195 -0.018107891 0.11433533 0.075238824 -0.11457172 0.059968114

func.net.0.bias f4 [128]
00000000: 4a55 b4bd 181e f63d 6eae e3bd ae83 9fbd
00000010: b62b ebbd a0e7 cabc 78c9 a5bc 00fb ca3d
00000020: 2093 f7bd 3e4f f4bd 98c2 a4bc 9061 75bd
00000030: fc30 eb3d c8f4 8d3c e27e f8bd 78aa e0bc
00000040: 0a01 923d a823 d6bd 8273 e7bd 008f 3e3a
00000050: 6841 c63c 6cd8 483d 564e 98bd 800b 813a
00000060: 5079 543c 80e9 c33d 40ce bebc 4293 dfbd
00000070: ecd9 a73d 7098 783d ca4f d3bd d2ac 803d
00000080: 2847 8e3d 5074 27bc 780b 5b3d 1c02 4fbd
00000090: 2c13 9e3d 003c efbb 6078 ca3d 0858 87bd
000000a0: 9c53 f4bd 22c7 cdbd 0cf4 bf3d 4096 bfbd
000000b0: 84ae 8dbd 3aa1 933d 54d9 edbd a223 e83d
000000c0: 94d4 423d 10e7 8ebc f4b2 933d 0644 debd
000000d0: 8033 5abc 3021 32bd 1c63 43bd 5897 bcbc
000000e0: e291 efbd 1a77 95bd 4022 683d 70c2 c03c
000000f0: 20ea fd3b 429b a1bd b036 eabc d8a6 c3bc
00000100: 84a5 2dbd d04b 963d d2bc a6bd e846 a23c
00000110: 4851 6a3d 70f6 ff3c 740a 363d 104d 4cbd
00000120: 2ce3 fa3d c040 043d b0f5 59bd 2cdd 67bd
00000130: 2025 d33b 9617 aabd 3e3a 9bbd 3c27 8cbd
00000140: 08a9 a9bc 6079 ae3d 5814 d23c 48db cbbc
00000150: dc56 a5bd 0a2e cc3d 6445 aa3d 98b5 bd3d
00000160: 4847 f13c b8a3 b53d a858 f1bc d82d 023d
00000170: 00b5 41bb 8294 cbbd 7451 e23d d87f 05bd
00000180: d03e 333c 3a77 dcbd 60ae 2e3d 507b 03bd
00000190: 1cc1 00bd c088 a23c 3af0 9b3d e082 9e3d
000001a0: 887c 3f3d 9e2f 87bd f6c6 b73d 64aa 19bd
000001b0: c011 52bd 60d5 573d 2045 90bb 70f5 07bd
000001c0: 08ae 943d 58e1 a2bd ac8b 12bd d42e 483d
000001d0: c0c7 fd3b 4c61 07bd 98e0 bdbd 44b0 83bd
000001e0: a8fd e13d b627 aebd 142a 3f3d b84b 88bd
000001f0: ec55 d23d 4471 9cbd c43b 22bd 80fd ebbc
-0.0880533 0.12017459 -0.11117254 -0.07788788 -0.114829466 -0.02476865 -0.02023767 0.09911156
-0.12088609 -0.11929177 -0.02011232 -0.059907496 0.114839524 0.017328635 -0.12133576 -0.027425036
0.071291044 -0.1045602 -0.11301328 0.00072692335 0.02420111 0.04903452 -0.074368164 0.0009845346
0.012968376 0.09566021 -0.023291707 -0.10916759 0.08195862 0.06069225 -0.10317953 0.06282963
0.06947166 -0.010220602 0.053477734 -0.05053912 0.077185005 -0.0073008537 0.09886241 -0.066085875
-0.1193001 -0.10047747 0.0937272 -0.0935483 -0.06918052 0.07208486 -0.11613718 0.113349214
0.04756601 -0.017444164 0.07211867 -0.10852818 -0.013317943 -0.04348868 -0.04770194 -0.023021385
-0.11697747 -0.072981074 0.05667329 0.023530215 0.007748857 -0.07890941 -0.02859053 -0.023883268
-0.042394176 0.07338679 -0.08141483 0.019809201 0.057206422 0.03124544 0.044443563 -0.04987818
0.12250361 0.032288313 -0.05321282 -0.05660741 0.0064436346 -0.0830528 -0.07579468 -0.06843421
-0.020710483 0.08519244 0.025644466 -0.024884835 -0.08073208 0.09969719 0.083140165 0.09263152
0.029452935 0.088691175 -0.02946122 0.031782 -0.0029557347 -0.09940435 0.11050692 -0.032592624
0.010940269 -0.10764928 0.042646766 -0.03210002 -0.031434163 0.019840598 0.07614179 0.07739806
0.04674962 -0.06600879 0.08973496 -0.037516013 -0.05128646 0.052693725 -0.0044027716 -0.03319305
0.07259756 -0.07953137 -0.035777733 0.048872784 0.0077447593 -0.033051774 -0.092713535 -0.064301044
0.11034709 -0.08503668 0.04667099 -0.06655067 0.102702945 -0.07638791 -0.03960778 -0.028807402

func.net.2.weight f4 [128, 128]
00000000: 75d2 b03c 5a2c 7ebd f32e 1bbd bd26 413c
00000010: fbe9 473d 1a3f 343d 3f6e c1bc 5852 ae3d
00000020: ce65 993d e560 5bbb 47b6 2fbd 179f 08bc
00000030: 859c 323d c465 afbd 8506 7ebd 9d49 3abd
00000040: 8a0b 4bbd 00ef 203d fa05 90bd bf9c f63c
00000050: 53ba ac3d 9bd5 0c3b 38c4 753d 941a 903d
00000060: ef6f 8f3d 6445 b8bc fd04 a53c 9618 193c
00000070: 8ebc 89bd f6f1 683d 845e e6bc 50bf 253c
00000080: ed42 9d3d 9f00 c53c 4473 0ebc 0a1c be3c
00000090: 1689 abbd ce56 293d ac01 5c3c cde9 7c3d
000000a0: 2010 a53c f5fb 8abc d27e 873d 4fdb a83d
000000b0: 4914 95bd a476 433d 46a1 afbc c322 97bb
000000c0: b4d5 76bd ffb5 8a3d 0577 9bbc 09c6 b9bc
000000d0: bfb3 2b3c fb72 74bd 91a3 c93c 8594 8a3c
000000e0: 0c0b 833d c21a 89bd 479a a5bc 684f a33d
000000f0: bd1d 8d3d 6534 af3d ee36 183c fed2 483d
00000100: 0c3d a2bd c060 16bd ed2d ae3d c54f 0b3d
00000110: 388d 66bd a68a 8a3d 8db3 b7ba bd38 a4bd
00000120: 79bf 723d 7e02 fd3c 0446 74bd 90a9 933d
00000130: 8cf7 1b3d 97c1 acbd a797 5dbd 10d4 3ebc
00000140: b715 193d 04cf 8b3d 6c26 e03b f5dc 29bd
00000150: 306a 11bd b86e 99bb d20f 57bd d67a 9f3d
00000160: ecf5 3d3d 1aa1 50bc ad0c 5c3c 53df 22bd
00000170: 8917 52bd 1810 b83b b741 31bd ed49 e1bc
00000180: 38ea 0bbd b577 e63c f016 2abd 2ba9 9b3d
00000190: a80e 4b3d ba3d 893c 3a32 8a3d f2fd 083d
000001a0: 6cf3 a03c a743 133d 21e2 f23c 31ce 82bd
000001b0: df00 0d3d a3e3 803b ae71 b73c dd01 963c
000001c0: 634d ef3c dec4 eb3a 43aa 1fbd 6e2d 9cbd
000001d0: 4198 8abd 9b14 9ebb 0778 833c 32eb b23b
000001e0: 9d0c 79bd 6f19 26bd deff 93bd 7408 d43c
000001f0: 030d a93c b569 a13d ac31 64bc ad56 ee3c
00000200: 86d7 57bd 9bd2 a23d 2450 0cbc 1ea2 cc3c
00000210: 42ef 2abd 92b8 85bd aa79 9abd 2dc6 f23b
00000220: d010 a93d bff9 92bc 07f2 7d3c 03c7 b03c
00000230: 7244 9cbd 48a1 1dbd eb17 5b3d 45dc 9ebd
00000240: 66b5 b43c aca4 603d 1ffb 8d3d efbc 6b3d
00000250: 9248 15bd 443d 67bd 9fc3 fdbc e452 f3bc
00000260: 1fd7 3cbc 1bc9 33bd 9037 5fbd 19eb 3c3c
00000270: 49c4 863d bb90 a13d b113 9fba d622 a5bd
00000280: 2d9d 9a3d 9399 74bc 3052 1a3c b44f 8fbc
00000290: 384a b3bd f999 8fbd d5a7 6b3c 3728 0b3c
000002a0: 5d6c 0d3d 38bb a83d c7ab a13c a85b 8bbc
000002b0: ba83 9fbc 013c 4cbb 857a 84bc 4306 85bc
000002c0: 4917 4b3d 84a8 08bd 6adc 403d 4197 8fbd
000002d0: 6316 023c 3a1c 5bbd e9bb 81bd ae8b b2bd
000002e0: ab88 b2bd 9852 8d3d 0aee 5f3d 4603 7cbc
000002f0: 35be 51bd ed3e 69bc 9a83 3fbb 488e 7dba
00000300: 0fd2 233d 71ab d4bc 2f36 193d e13d 01bc
00000310: 5b68 3f3d 8c3c 7a3d 3987 b3bc 6224 8e3d
00000320: 889c 0c3d 829d 283b 26b2 863d 51e1 ac3d
00000330: b72c 953c c6aa bc3c 5010 9fbc 9b04 2bbc
00000340: 758f 973c 26f9 083d bec2 8f3c bd64 f9bc
00000350: 625d 3dbc 5de6 6bbd aba0 5fbd e9d4 38bd
00000360: b09b 7e3a e294 6f3d 0caf cfbc 5dcc a2bd
00000370: f20a a8bd d89b 49bd e778 823d fc6f 10bd
00000380: bf2f 88bc 3531 443d bab7 4abd dc12 4abd
00000390: 0617 ad3b 4879 653c cda7 623d 1ab1 b23c
000003a0: b75a 8f3d 70ca d13c 63b2 b1bb c3c4 72bc
000003b0: 04a2 353c e8d3 81bd f99b 35bd 0153 62bc
000003c0: f032 3fbd 9fac 8dbd 7abe 5bbd f099 1a3d
000003d0: 3150 78ba 2f16 823d d607 6dbc 19f9 82bd
000003e0: 721a 273d 1464 893d 5c9f e83c 5816 a03d
000003f0: 3a3f abbc e13c ca3c 484e 82bd a41e 58bd
0.021584729 -0.062054016 -0.03788657 0.011789021 0.048807126 0.04400549 -0.02361214 0.085117996
0.07490121 -0.0033474502 -0.042898443 -0.008338711 0.0436063 -0.08564332 -0.062017936 -0.04548036
-0.04957155 0.03929043 -0.0703239 0.03010404 0.08433976 0.0021489623 0.060001582 0.070363194
0.070037715 -0.022494026 0.02014398 0.009344241 -0.06725417 0.056871377 -0.02812124 0.010116413
0.07678781 0.024048148 -0.008694474 0.02320673 -0.083757564 0.04134255 0.013428133 0.061746407
0.02014929 -0.016965846 0.06615986 0.08244955 -0.0727926 0.047720566 -0.021439206 -0.004612298
-0.060262397 0.06772994 -0.018977651 -0.022677438 0.0104798665 -0.059679966 0.024614127 0.016916523
0.063985914 -0.06694557 -0.020215167 0.0797413 0.06890438 0.08554915 0.00929044 0.049029343
-0.079218 -0.03671336 0.085048534 0.03401162 -0.05628702 0.06764726 -0.0014015302 -0.080186345
0.059264634 0.030884977 -0.059637085 0.07210076 0.038077876 -0.08435362 -0.054099705 -0.011647239
0.037374225 0.068265945 0.0068405177 -0.041470487 -0.03550166 -0.004682388 -0.05250532 0.07787101
0.046377108 -0.012733722 0.0134307565 -0.03976376 -0.051291976 0.005617153 -0.04327556 -0.02750107
-0.034158915 0.028133253 -0.04152578 0.076006256 0.049574524 0.016753066 0.06747861 0.033445306
0.019647323 0.03595319 0.029648842 -0.06386984 0.03442466 0.0039333864 0.022393074 0.018311435
0.029211706 0.0017987748 -0.038980734 -0.076258525 -0.067673214 -0.0048242337 0.016048444 0.0054601664
-0.060803045 -0.0405516 -0.07226537 0.025882937 0.020636087 0.0788149 -0.013927858 0.029094065
-0.052695774 0.07950326 -0.008564029 0.024979647 -0.04173208 -0.065293446 -0.07542737 0.0074088783
0.0825516 -0.017941354 0.015499598 0.021579271 -0.076302424 -0.038483888 0.053489607 -0.07756857
0.022059154 0.054844543 0.06932663 0.057553228 -0.03644616 -0.05645491 -0.030977068 -0.029702611
-0.011525898 -0.04389296 -0.054496348 0.011530661 0.06580407 0.07888933 -0.0012136606 -0.08063285
0.0754951 -0.014929193 0.009419009 -0.01749406 -0.087543905 -0.0701179 0.014383276 0.008493475
0.03452717 0.08238834 0.01973523 -0.017011479 -0.019471992 -0.0031163695 -0.016171703 -0.016238337
0.049582753 -0.033363834 0.047085203 -0.07011271 0.007939908 -0.053493716 -0.06334669 -0.08718048
-0.087174736 0.06900519 0.05467037 -0.01538164 -0.051206786 -0.014236194 -0.0029222728 -0.00096723856
0.03999525 -0.025960656 0.03740519 -0.007888288 0.04673038 0.0610929 -0.021915065 0.06940533
0.034328967 0.0025728648 0.06576948 0.08441413 0.018209798 0.02303065 -0.019416958 -0.01043811
0.018501023 0.03344073 0.017548915 -0.030443544 -0.011557909 -0.05759274 -0.054596584 -0.045124922
0.00097125303 0.058491595 -0.025352024 -0.079491355 -0.08205213 -0.04922089 0.063707165 -0.035263047
-0.01662433 0.04789849 -0.04949162 -0.049334392 0.0052822856 0.0140059665 0.05533581 0.021812964
0.06999724 0.025609225 -0.0054228767 -0.014817419 0.011085991 -0.06339246 -0.0443382 -0.013813735
-0.046679437 -0.069176905 -0.05364845 0.037744462 -0.00094723987 0.063518874 -0.0144672 -0.06395168
0.040796705 0.067085415 0.028396301 0.07816762 -0.020904172 0.024687232 -0.06362587 -0.052763596

func.net.2.bias f4 [128]
00000000: 68ab 31bc d893 0cbc be9b 243d 0222 35bd
00000010: 14c6 78bd 796b 88bc d059 a03d eab0 8bbd
00000020: 1ffc edbc 42df 8dbc 7d77 533d bd82 633d
00000030: 19a1 98bd b7b0 0abb 27a6 b2bd c143 38bc
00000040: 0389 d53a 35cf 803d b2ef 443d 7b40 98bd
00000050: 7ffe 17bb 646d 1ebc ca02 27bd f0f4 2c3d
00000060: 215a 29b7 062e 833c 2be1 97bd 5be1 5d3b
00000070: cac5 4a3d 1410 8abd edf6 a4bd 3a76 033d
00000080: 8e32 53bd ebb4 883d dc0c a03b 57af 9cba
00000090: 0125 ad3d 8e54 a63a 8488 a43c 97cc a03d
000000a0: 2882 2e3d 413d 00bd 93c1 453c 40a9 97bd
000000b0: ad83 76bd e257 7abd ee53 c53c 77a4 163d
000000c0: bc87 2a3d e9ce 7cbd 5c44 97bd 8884 413d
000000d0: 5a67 36bd d82d fa3c a946 a53d 6e53 bb3c
000000e0: 13c3 7cbd 10f0 a23d 29bf 843d f0bf fc3c
000000f0: e141 313d a264 303d 538b ac3d 38f3 25bd
00000100: 0ffe 5d3d 15b8 32bd b1f4 5bbd 558c 21bc
00000110: c5cd 043d 8ec8 193d 8717 b23c 4b98 283d
00000120: 5058 693d 597f a83c 46b5 ccbc 1102 6ebd
00000130: 935e ecbb c113 a13d ca40 8b3d 116d 103d
00000140: 8e6c adbd 6612 a73d 9958 4a3d edc0 ac3d
00000150: 14cd a53d 70d7 833d a2f5 a8bb 35ee 763d
00000160: ae9e 0d3d 65e0 c2bc 40a2 aa3d b7f8 b7bc
00000170: f674 4a3d 3e61 063d 733c 7ebc c6ea d8bb
00000180: 0e7a abbd 0da8 8abd c6d8 22bd ac6f 043d
00000190: 4a24 9fbc ca20 f9bc e323 fc3b 4cd2 61bd
000001a0: 5da5 46bd efb8 02bc 4439 373d 8960 dc3c
000001b0: ce77 73bd cea3 b43d 6482 10bd 83d0 9bbd
000001c0: 3f31 2e3c aabe 9a3d f112 a03d 408c b9ba
000001d0: b84c 053d db28 9c3d 1383 0abd 297d 92bd
000001e0: dedd 98bd 4cbe 6c3b 1a01 59bd d310 81bd
000001f0: 8c37 5cbc 0f3c a23d 72a8 9b3d 46c4 9abd
-0.010844089 -0.008580171 0.04018759 -0.044221886 -0.060735777 -0.01665281 0.078296304 -0.06820853
-0.029050885 -0.017318372 0.051627625 0.055544604 -0.07452602 -0.002116246 -0.08723097 -0.011246623
0.0016291443 0.062895216 0.048080154 -0.07434174 -0.0023192463 -0.009669635 -0.040774144 0.042225778
-1.009417e-05 0.016013157 -0.07415994 0.0033856246 0.049505033 -0.06741348 -0.0805491 0.03209517
-0.051561885 0.06675132 0.0048843455 -0.0011954111 0.084543236 0.0012689994 0.020084627 0.078515224
0.042604595 -0.031308416 0.0120700775 -0.07405329 -0.06018417 -0.061118968 0.024087872 0.03677794
0.041633353 -0.061720762 -0.073860854 0.047245532 -0.044532157 0.030539438 0.08070118 0.02286693
-0.061709475 0.079559445 0.064817734 0.030853242 0.043275718 0.04306472 0.084250115 -0.040515155
0.054197367 -0.043632586 -0.053700153 -0.009860118 0.0324228 0.03754478 0.021739734 0.041160863
0.056968987 0.020568537 -0.024988782 -0.05810744 -0.0072134226 0.07865096 0.06799467 0.035260264
-0.08467971 0.08157806 0.0494009 0.08435235 0.08095756 0.06437576 -0.005156235 0.060285766
0.034575157 -0.02378864 0.08331728 -0.022457464 0.04942795 0.03280758 -0.015517342 -0.006619784
-0.083728895 -0.067703344 -0.039757513 0.03233306 -0.019426484 -0.030411143 0.0076947077 -0.055132195
-0.048497546 -0.007978662 0.044732347 0.0269015 -0.059440427 0.08820306 -0.0352806 -0.0760813
0.010631858 0.075558975 0.07816113 -0.0014156178 0.032543868 0.0762498 -0.03381641 -0.07152779
-0.07464193 0.0036124168 -0.052979566 -0.06302037 -0.013440978 0.079216115 0.07600488 -0.075569674

func.net.4.weight f4 [768, 128]
00000000: cd90 5fbd 841f 5e3d 2933 de3c 9516 87bc
00000010: 1e89 b03c 9078 a93d f724 a53d a85d dd3a
00000020: 895e 233c 908f ad3c 0a9b 6fbd 0ce1 093d
00000030: 957d 843d 1cfb 9e3d 326c 403c 2b13 9ebc
00000040: 5e0f 6ebc 0147 5eba 76c5 a8bc 55dc 613d
00000050: c1ee 363c 1617 32bd 12f2 03bd e3c8 8fbc
00000060: 1742 a0bd 78cf 9abd 6280 4abc ead1 ad3d
00000070: c8f7 de3a f060 1ebd c687 863d 3d87 9bbb
00000080: 7133 4cbd f96b 23ba 148f 913d 381b 94bd
00000090: 2ee4 0cbd 628b b33d ca93 493d 4cdc 39bd
000000a0: dd70 2abc 6184 603d 04fb 69bd 1b9d 3abd
000000b0: c2de 423d 39a9 69bd db17 e9bb d5d1 20bd
000000c0: c163 553c 2739 5b3d 86ac 953c b559 213d
000000d0: 8142 813d b78c 72bd ff71 293b d962 e63c
000000e0: 6264 a43d 0dd6 a5bc 82b6 943d b912 a7bd
000000f0: b24b 3fbd ce36 023d 8953 9b3d 660b 1abd
00000100: 6211 843c 58d9 af3d 9d54 71bd 0e03 623c
00000110: 9ff5 3f3b fd5b 3ebd 9b28 803d 552c 75bd
00000120: 1697 643d 23a5 b0bd a1f9 a93d 287c 0e3d
00000130: 9664 133c f40a f1bc 250a a43d 5a72 df3c
00000140: e422 9cbb 46f5 21bd 17be 243d cc08 133c
00000150: e40e 423d 0d7b 99bd 24c4 40bc c03a cf3c
00000160: e60f b0bd 07c1 573d 0835 8cbd 9b0c 1abd
00000170: 30fc 47bd fba0 acbd 1c7a 20bc 6924 21bd
00000180: 1fff 8ebd 038b 723d 1264 d8bc 6224 07bd
00000190: b23a 8ebc b672 6bbc 2f0c 64bd 9c0c b03d
000001a0: 39c0 5bbc 9ef8 9e3d 6a8f 2cbd 824e 53bd
000001b0: 9ae1 813d e31c 273d 2214 39bd c047 f43c
000001c0: 9ef8 9f3b 270c 98bc cba0 9ebd 7f18 0d3d
000001d0: 08bf 7c3d 49d4 40bd 04ae 393b 33fa ba3c
000001e0: 2e45 493d 7138 1dbd 99a6 873d 8b73 053d
000001f0: 081a a4bc 777a 67bd a416 7a3d 7099 96bd
00000200: 6f62 a7bd 70c9 8d3d 7254 913c 8e45 acbd
00000210: f1fa 9a3d b5ac 4f3b 0a97 9f3b 5b54 923d
00000220: 88a0 513d 9edb 21bc 1e49 84bd 4149 d2bc
00000230: 9c69 773d a15a 80bd c479 07bd 029c 84bd
00000240: 7c53 933d 4f74 48bd b58e 9a3d 45e3 17bc
00000250: 3b8d 183d 1750 843d be4b edbc d571 223c
00000260: 4ee4 9cbd 727b 9e3c d57d c83c 73b2 6f3d
00000270: ff0f 853d 05fc acbc 16c0 90bc 4d51 a5bd
00000280: 1c65 a3bd 55d6 2e3d 7261 3ebd 3ae8 ffbc
00000290: 8342 6e3d 6df7 b23d cef2 a63d ce7f 36bd
000002a0: c9db 3c3d 3fbf b6ba 6c81 46bd 62e6 20bb
000002b0: 107b 493c f3ef ecbc ce7c f03c 4d0d 5b3d
000002c0: 8689 9dbc 2023 19bd f006 853d 651f a4bd
000002d0: e79e 243d cde4 423d d1cc ecbc 681c a3bd
000002e0: f447 793d 3e41 91bc 63e4 693b b6df 9d3d
000002f0: 42a0 abbd a81f 6d3d 29c6 7e3d de60 a1bc
00000300: e220 913d dbe2 01bd ae83 86bd 7fd4 a43d
00000310: 2ecc 26bd baae 9a3d 6f80 8abd 15fd b03c
00000320: ecb6 93bc 2c82 31bc c7b1 273c 8a8e 843c
00000330: 4c51 acbb bb4b 5cbd 3eb8 2fbd 7530 683d
00000340: a89a 03bd e470 a4bd 139b 593d 7485 29bd
00000350: 1b2e 37bd 7f19 553d 12ab 91bd 3f14 233d
00000360: e0fe 103d 0335 913d ac62 6cbd 5eba 4a3c
00000370: 1357 bb3c 7fc3 acbb d929 acbd 5031 ae3c
00000380: 19db 0a3d a8d6 da3a d2c6 7ebb e978 233d
00000390: 0ea7 0b3d f69f 88bd b422 9f3d 2636 b3bd
000003a0: e696 83bc 68f6 153d c139 0abd 16f6 943d
000003b0: 4b79 54bd 7c91 8a3d a539 d83c 7576 49bd
000003c0: 34f7 afbd 4a18 a2bd 29bd afbd 9a97 36bc
000003d0: f0b6 4fbd 2b00 453d 56d4 a33c 726b 2f3d
000003e0: 4f34 b23d 279d 053d e771 28bd 43a3 9a3c
000003f0: 5bab 8cbd 2d78 d039 c7e2 a9bc 17d9 62bc
-0.054581452 0.054229274 0.027124004 -0.01649026 0.021549758 0.082749486 0.08063691 0.0016888874
0.009971269 0.02118662 -0.058497466 0.033661887 0.06469265 0.07762739 0.011744546 -0.01929625
-0.014530031 -0.00084792083 -0.02060197 0.055141766 0.011165322 -0.043479048 -0.032213278 -0.017551845
-0.07825106 -0.07559103 -0.01235971 0.084873036 0.00170111 -0.038666666 0.065688655 -0.0047463463
-0.049853746 -0.0006234046 0.07107368 -0.07231754 -0.034397297 0.087668195 0.04921321 -0.045376107
-0.010402885 0.054813746 -0.057124153 -0.045559984 0.04757572 -0.05704615 -0.0071134395 -0.03926261
0.0130242715 0.0535213 0.018270742 0.039392192 0.06311513 -0.059216227 0.00258553 0.028123306
0.08026959 -0.020243669 0.07261373 -0.08157868 -0.046703048 0.031790547 0.075842924 -0.037608527
0.01612157 0.08586377 -0.058918584 0.013794674 0.0029290689 -0.046474446 0.06257745 -0.05985673
0.05580815 -0.08625247 0.08299566 0.034786373 0.0089961495 -0.029424168 0.080097474 0.027276207
-0.0047649015 -0.03954055 0.040220346 0.008974265 0.047377482 -0.07494173 -0.011765514 0.025296569
-0.085967824 0.05267432 -0.068460524 -0.037609678 -0.04882449 -0.08429142 -0.009794738 -0.039341364
-0.06982254 0.059214603 -0.026414905 -0.03299368 -0.017361972 -0.014370611 -0.05567568 0.08596155
-0.013412529 0.07762264 -0.042128958 -0.051588543 0.06341858 0.040799033 -0.045185216 0.02981937
0.0048819324 -0.018560482 -0.077455126 0.03444719 0.06170562 -0.04707745 0.002833248 0.022824382
0.04913824 -0.038383905 0.06623573 0.032580893 -0.020031944 -0.056513276 0.061056748 -0.07353485
-0.081730716 0.06923187 0.017740462 -0.08411704 0.075673945 0.0031688635 0.0048703 0.07144996
0.051178485 -0.009879021 -0.064592585 -0.025669696 0.06040345 -0.06267286 -0.03307511 -0.06475069
0.07193658 -0.048939046 0.075467505 -0.009270494 0.037244063 0.064605884 -0.02896678 0.009914835
-0.07660733 0.019345973 0.024474064 0.05851979 0.06497192 -0.021116266 -0.017669719 -0.080721475
-0.079782695 0.04268487 -0.04647965 -0.031238664 0.0581689 0.08738599 0.0815178 -0.044555478
0.04610804 -0.0013942494 -0.04846327 -0.0024551381 0.012297407 -0.02892301 0.029356387 0.05347948
-0.019230615 -0.037387013 0.06495464 -0.080138005 0.040190604 0.047581483 -0.028906258 -0.079644024
0.060859635 -0.017731305 0.0035689108 0.07708685 -0.08380176 0.057891518 0.0622007 -0.01969951
0.0708635 -0.031710487 -0.06568085 0.08048343 -0.040722065 0.07552858 -0.06762778 0.021605054
-0.01803156 -0.010834258 0.0102352565 0.01618125 -0.005258715 -0.05378316 -0.042900316 0.056686837
-0.032129914 -0.08029345 0.053126406 -0.041387036 -0.044721704 0.052026268 -0.07112707 0.03981423
0.035399318 0.07090189 -0.05771129 0.012373535 0.022868669 -0.0052723284 -0.08406419 0.021263748
0.033900354 0.0016696053 -0.003887583 0.03991023 0.034094863 -0.06671135 0.07770291 -0.08750562
-0.016063165 0.036611944 -0.033746485 0.072735 -0.051873486 0.0676603 0.026394675 -0.049185235
-0.08592072 -0.07914789 -0.08581001 -0.011144543 -0.050711572 0.048095863 0.01999871 0.042827077
0.08701383 0.032620575 -0.04112425 0.018876677 -0.06868621 0.0003976239 -0.020738019 -0.013845704

func.net.4.bias f4 [768]
00000000: 5b01 513d c890 93bd b0b4 89bd dbd4 a3bd
00000010: e77e 44bd 3371 803d 229f 83bd b4d2 7fbd
00000020: dd7d 6a3d 5b22 0c3d 35b4 1b3d 7966 51bc
00000030: 4d8c 663c 522b 2dbd ccc0 073c 62cb 13bd
00000040: 5e11 83bc a3e4 9bbd ee35 04bd 289f fe3c
00000050: 24c7 833d 34e8 99bd e2d7 363d f485 82bc
00000060: 0888 5f3b 10be 3c3d 9653 2ebc 2331 ae3d
00000070: 24c8 923c f8f3 b2bc be00 76bd 1991 6a3d
00000080: 5dc8 703d 8d0c 8b3d 0c97 a9bd 01a6 bbb9
00000090: 31ef 95bd fb01 d8bc 5873 033d d3ec 593d
000000a0: be15 6e3d 8801 2bbd a83a 74bd 0950 8c3d
000000b0: 9875 c73c ac8d e23c 7723 90bd 105e 94bd
000000c0: 8057 e83c dcdc 5bbd 0cc2 65bd 414d 06bd
000000d0: a3de eebc 0be0 653d 0206 59bd 2ef6 163d
000000e0: 7aac afbd 2b9c 9a3d 44df 2f3d f355 3bbd
000000f0: f7ea 753d 8100 ad3c e86a 67bd c064 d9bc
00000100: c032 9ebd b643 4dbd 3a32 4e3a b6d8 c53c
00000110: e039 173c 95f9 a0bd 9f00 83bd e0ee cdbb
00000120: 92d0 383d e603 b4bd 6ff4 2bbd c72a 96bd
00000130: c5e0 9b3d b7bb 243d b24f a63d 8b2d 98bd
00000140: 508b 523d 2e4d a5bc 703d 9bbd c6e2 973d
00000150: d8f3 19bd 333d c3bc 54a2 933d e568 5d3d
00000160: 6ae6 803d ff45 2c3d 6ec3 a83c 23eb f4bc
00000170: 16f0 7c3d b45f 693d 1545 94bd bc1d 2c3d
00000180: dac0 89bc d243 b43d 3f32 293d 9c94 b43d
00000190: e05f aa3d 2fac 653d 96c6 613d 7329 23bd
000001a0: 8be7 6abb dcd5 3f3d 26e7 2ebd 7e50 6dbb
000001b0: abfa a43d 9a25 1d3c 938a a93d 7aab adbd
000001c0: ac55 983d a07b 45bd bb3d bfbc 1d9f 433d
000001d0: 1683 8e3b ba77 1f3d 668f 8ebd b594 f1bc
000001e0: 1c4c abbd 9e5e 57bc 8023 a1bd 36ac 573d
000001f0: bd94 78bd 2711 9f3c fb72 09bd 3b64 b23d
00000200: d094 a13d 3b68 db3c 3452 a63d 096e b0bd
00000210: 8b31 a1bd bf99 903b 8828 1b3c 09b4 a2bb
00000220: 0b21 53bd bb7e 2e3d 9dc3 0f3d 6107 74bd
00000230: 11a7 91bd 4d7b c2bb 797b 9e3d c03a 433d
00000240: 4baf 29bd 4e8e b0bd 8c01 8c3d 898a 593c
00000250: aa7a 943d 89d8 d13c 6afc b93b 34cd a0bd
00000260: 4a70 1dbc cd42 63bc 65df 69bc 1dc9 d1bc
00000270: b321 74bd 94ae 4a3d e72c 50bd a2d7 053d
00000280: e424 a2bc 8b0e abbd f438 eebc c428 793d
00000290: a58f 043c d2d0 883d 70ed 4d3d 37e7 2abd
000002a0: 0bb4 d3bc 203c 333d 7107 f5b9 3582 9fbd
000002b0: faf7 aa3d 942b 56bd dea6 373c 3a61 b33d
000002c0: d32d 4d3d dc99 643d 5c8c a4bd fa46 92bd
000002d0: f244 c1bc 6615 c03c 9ab8 93bc 0ca5 973b
000002e0: e911 67bd 6fc4 7cbd 0435 56bd ae41 6abd
000002f0: 8e76 b4bd e5bf 1b3d c22f 8fbd d062 0c3d
00000300: efbb 51bd 01bf b13c 052f 64bd c16d fdbb
00000310: 48e6 f7bc 3b1f eabc ec71 b43d a7d4 dd3c
00000320: 627d 843d 2ab6 a8bd a78e 5c3b 2dd7 a8bd
00000330: 7a67 e83c e7d7 67bd 85b6 0b3b ee9e bcbc
00000340: 1301 673d 0c94 c23b efa5 7b3d f82a 96bd
00000350: 02f9 0c3c 7d8d 763d 6dd3 373d 61bb a5bb
00000360: 9693 a33d bab1 86bd cec1 41bd 8514 a63d
00000370: 595d 2b3c 5684 603d fc08 fabc ecfc 33bd
00000380: 0f98 7f3d 106f 4e3d c03e 103d e749 073d
00000390: a71c a9bd 3cd3 2d3d e543 8dbc dd67 813d
000003a0: 6b54 623d 233a 703c c4ee 663d c0fc d6bc
000003b0: 1064 cd3c 2ce7 d8bc 2ccd 24bc 82c9 2c3d
000003c0: 8716 b4bd 957d acbc 148d 48bb ce67 6fbd
000003d0: 5223 09bb 35bd b3bd 2505 99bd 0668 19bd
000003e0: a42b a03d 3678 b4bc 6d22 8f3d 63e8 99bd
000003f0: 75a1 1dbd 6768 6dbd ac5b 7abc ede8 723d
0.051026683 -0.07205349 -0.067239165 -0.07999583 -0.047972586 0.06271591 -0.064268366 -0.0624568
0.05724894 0.03421245 0.038013656 -0.012780779 0.014071536 -0.04227764 0.008285712 -0.036082633
-0.015999492 -0.07611968 -0.032277994 0.031081751 0.064344674 -0.07514992 0.044639476 -0.015933014
0.003410818 0.046079695 -0.010640046 0.08505466 0.0179177 -0.021844849 -0.0600593 0.057267282
0.05878483 0.06789503 -0.08280763 -0.00035791102 -0.07321013 -0.026368132 0.032092422 0.05320437
0.058126204 -0.041749507 -0.05962625 0.06851203 0.024348065 0.027655445 -0.070380144 -0.072445035
0.028362036 -0.053677425 -0.05609326 -0.03278852 -0.029158896 0.056121867 -0.052984245 0.03685587
-0.08577819 0.07549318 0.042937532 -0.045736264 0.060038533 0.021118404 -0.056498438 -0.0265373
-0.077245235 -0.050113402 0.00078657607 0.024151187 0.009230107 -0.07860104 -0.06396603 -0.0062845796
0.045120783 -0.08789806 -0.041981157 -0.07332378 0.07611231 0.04021808 0.081206694 -0.07430562
0.05140239 -0.020178404 -0.07580078 0.074163005 -0.037586063 -0.023832893 0.07208696 0.054055113
0.06293948 0.04205894 0.020601 -0.029897278 0.0617524 0.056976035 -0.07239739 0.042020544
-0.016815592 0.08801998 0.041307684 0.088174075 0.08319068 0.05607241 0.055121027 -0.03983445
-0.0035843577 0.04683481 -0.04270091 -0.0036211307 0.080556236 0.009591484 0.08278384 -0.08479972
0.074382156 -0.0482136 -0.023344865 0.047759164 0.0043491228 0.03893254 -0.06960945 -0.029489854
-0.08364126 -0.013145117 -0.07868099 0.052654468 -0.060688723 0.019417359 -0.03355692 0.08710524
0.07889712 0.0267831 0.08121148 -0.086147375 -0.07870778 0.004412859 0.009470113 -0.0049653095
-0.051545184 0.04260133 0.03509866 -0.05957735 -0.071119435 -0.0059351088 0.07738394 0.04766345
-0.041426938 -0.086208925 0.068362325 0.013277658 0.07249959 0.025615947 0.005675842 -0.078516394
-0.009609291 -0.013870907 -0.014274453 -0.025608594 -0.05960245 0.049482897 -0.050824072 0.032676347
-0.019792981 -0.08352383 -0.029079892 0.060829893 0.008090888 0.06680454 0.050275266 -0.04172441
-0.025842687 0.04375851 -0.00046735586 -0.07788507 0.08348079 -0.052287653 0.011209218 0.08758779
0.05009253 0.055810794 -0.08034584 -0.07142444 -0.023592446 0.023447704 -0.01803236 0.0046278294
-0.056413565 -0.06171077 -0.052296653 -0.057191543 -0.08811675 0.0380248 -0.06991531 0.034273922
-0.051204618 0.021697523 -0.055708904 -0.007734031 -0.030261174 -0.028579345 0.088107914 0.02707894
0.064692274 -0.0823787 0.0033654363 -0.082441665 0.028369654 -0.056602385 0.0021318507 -0.023025002
0.05639751 0.0059380587 0.061437543 -0.073324144 0.00860429 0.060193527 0.044879366 -0.0050577377
0.07987134 -0.065768674 -0.047303967 0.081093825 0.0104592675 0.054813705 -0.030521862 -0.043942377
0.062400874 0.050398886 0.035216093 0.033029463 -0.08257418 0.042437777 -0.017244289 0.063186385
0.05525629 0.014662298 0.05638005 -0.026243567 0.025072128 -0.026477419 -0.010058682 0.04218436
-0.08793359 -0.021055976 -0.0030601667 -0.058448605 -0.0020925594 -0.08776323 -0.07471684 -0.03745272
0.07820824 -0.022029977 0.06988988 -0.075150274 -0.038484056 -0.057960894 -0.015280645 0.059304167

readout.weight f4 [1, 64]
00000000: 58c9 8d3d 7860 91bc c062 793b 9a07 8fbd
00000010: 5266 9e3d 8ccd 02bd 3a75 a2bd 1c1f d5bd
00000020: 2812 f03d ae63 88bd d48d 79bd b676 c6bd
00000030: 3ae0 853d a446 adbd 46cb 963d 26c4 cf3d
00000040: 0267 c8bd 204d 64bd 94b4 c8bd 7224 94bd
00000050: b057 9dbd a0cd 663d e429 f93d 649b 41bd
00000060: 609f dbbc d6f5 ebbd 889e f2bd c4bc e13d
00000070: b4c5 9ebd 6cfd 42bd 5082 f1bd 12af 863d
00000080: b84e b83c 9c17 4abd 40a4 7f3b 1867 743d
00000090: 9af5 e93d fee2 e0bd 840a a7bd f8cd f5bc
000000a0: 8434 ebbd c07f 85bc bcc3 043d d837 ef3c
000000b0: 383b 713d 22c9 883d f06d 93bd ac73 733d
000000c0: 3003 edbc 2e41 b93d 36df bbbd 4e7a cebd
000000d0: a8e9 6fbd f248 913d 7677 f93d 70b3 433d
000000e0: 7a67 c0bd 00f4 d33a ee8a 84bd 8092 a93d
000000f0: 18d0 dfbd 9234 a33d 8a0f e93d ae79 b2bd
0.06923169 -0.017746195 0.0038053244 -0.06983872 0.0773436 -0.031934306 -0.079325154 -0.10406324
0.11722213 -0.066596374 -0.060926273 -0.09690611 0.065369084 -0.08460739 0.0736299 0.10144834
-0.09785272 -0.055737615 -0.098000675 -0.07233514 -0.07682741 0.056348443 0.12166193 -0.047267333
-0.026809394 -0.11521499 -0.11846644 0.11022332 -0.07752553 -0.047604963 -0.11792433 0.06576361
0.022498474 -0.049338922 0.0039007813 0.05966863 0.11423798 -0.10980795 -0.081563026 -0.03000544
-0.11484626 -0.016296268 0.03241323 0.029201433 0.058894366 0.06678988 -0.07198703 0.059436485
-0.028932184 0.09045635 -0.091734335 -0.100819215 -0.05857244 0.07093991 0.121809885 0.047778547
-0.093947366 0.001617074 -0.06471811 0.08279896 -0.109283626 0.07969011 0.11379917 -0.08714615
