ncde/best_model_robust_rde.pth (torch, 85019 bytes, 7 tensors)

net.0.weight f4 [128, 78]
0.002614391 -0.008497423 -0.008873186 -0.007995922 -0.014154978 -0.0015724273 0.0061741495 -0.010876632
0.0058032265 0.0043584285 -0.01255919 -0.01434378 0.0046235104 -0.0045170337 -0.010270629 -0.0012238354
0.0011457601 0.01460454 -0.0132252555 -0.006943469 -0.01864317 -0.011973892 -0.001719428 -0.005252721
0.0039267503 0.00037997199 -0.0027050439 0.0043310514 -0.0093078455 -0.011179469 0.0047663096 0.0069221505
0.019832475 0.002211322 -0.015882904 -0.004845064 0.0012052194 -0.022713002 -0.02839708 -0.0014824448
0.009543474 0.011711269 -0.002492346 -0.0059218393 -0.005325787 -0.0019426037 0.013945806 -0.005819202
0.0007392552 0.0060552345 -0.0009981763 -0.0063691144 -0.016498461 0.008962878 -0.0005672091 0.0134757785
0.009993209 -0.0112928385 -0.0031995252 0.00598514 0.012223106 0.006531138 0.022625588 -0.009194661
-0.0093722725 -0.014272497 -0.0017642978 -0.008058826 0.013557535 0.009507838 0.0056854924 0.0075880075
-0.015939986 0.0037450993 0.0049482477 0.012102481 -0.020906152 0.006765007 0.006427585 0.015824236
0.013143254 -0.0063836183 0.005255111 -0.0036222069 -0.0024190391 0.0016677309 0.008042995 -0.0010702884
-0.009609719 -0.0016590193 0.0011138661 0.00012035686 -0.0009718143 -0.0076423576 0.00036253812 0.005603423
0.0002395589 0.004431634 -0.015873456 0.0059796595 -0.010312298 -0.0041222316 0.018237777 -0.0003990184
0.005955511 0.010799608 -0.009316945 0.0016460591 -0.0068150265 0.0049336017 -0.003884156 -0.0033982866
-0.021454703 -0.024216052 -0.0060950527 -0.011874091 -0.011305283 -0.012021292 0.009552224 0.00042063213
-0.0036180546 -0.006922056 0.0011914647 -0.0018575744 -0.001573172 0.006689057 -0.015750473 0.002473968
-0.006204857 0.0022680897 0.0046250536 -0.00038064778 0.0013552976 0.0005455019 -0.007314978 -0.0010085552
0.003146181 -0.012274788 0.017450426 -0.0036456254 0.0026668517 0.0038168214 -0.0013167186 -0.014248635
-0.011124346 -0.0032520199 0.010023882 0.008641588 0.005005136 0.0017988704 0.0010547633 0.0024019708
0.008062685 -0.016940655 -0.017191382 0.007790115 0.009185704 -0.01507877 -0.00762551 0.007305391
-0.0012198534 0.011095575 -0.009167348 -0.0049461154 -0.0028608576 -0.019087318 0.001940375 0.006494733
-0.008919272 -0.0004114079 0.0036948996 0.008760114 -0.00045969433 0.0051427954 -0.009452949 -0.009553897
0.016273582 -0.00012105778 -0.0057729622 -0.011016528 0.00035261046 0.0042716954 0.024228215 -0.004584732
0.00959031 -0.00073936005 0.03529904 0.0023080134 -0.013132704 -0.00064197823 0.009406885 0.008363223
0.0055463132 0.014345191 -0.003716294 0.008838433 -0.013996922 -0.004745266 -0.0079488605 0.017984975
0.0029563569 -0.0016420269 0.010826122 0.005700976 -0.009404466 -0.0017901458 0.0143847205 0.0030259367
0.0005080331 0.008004306 -0.0006380999 0.008285557 -0.0031257928 0.022067385 -0.023364812 -0.0068160933
-0.000453186 -0.016268706 -0.020896835 -0.007047683 0.009244235 0.0076202503 -0.0010899501 -0.005079191
0.0052207415 -0.0047003827 0.0014904044 0.024546621 0.009026712 -0.0037763868 -0.010117975 0.005527762
0.001490299 0.0007258048 0.0032045199 -0.0040883985 0.0036136305 0.023422068 -0.0033908582 0.013205893
-0.0025277385 -0.0045559653 0.00025780612 -0.0011389891 -0.00076550664 -0.018815223 0.008505016 -0.0038471413
0.0046420624 -0.0025055832 -0.014413688 0.013859347 -0.018535221 0.01929502 -0.0019919001 -0.00039785326
00000000: 3456 2b3b c638 0bbc d760 11bc 5401 03bc
00000010: 48ea 67bc e819 ceba 8550 ca3b e733 32bc
00000020: fe28 be3b 26d1 8e3b 10c5 4dbc 2d02 6bbc
00000030: d180 973b a003 94bb 2446 28bc 1a69 a0ba
00000040: 542d 963a e147 6f3c beae 58bc 0a86 e3bb
00000050: 90b9 98bc 252e 44bc 6e5e e1ba 041f acbb
00000060: f8ab 803b fa36 c739 1b47 31bb 7eeb 8d3b
00000070: ef7f 18bc 172a 37bc b42e 9c3b 35d3 e23b
00000080: b777 a23c d4eb 103b dd1c 82bc 58c3 9ebb
00000090: 74f8 9d3a 9e10 babc fea0 e8bc 984e c2ba
000000a0: 3b5c 1c3c 9fe0 3f3c a156 23bb fd0b c2bb
000000b0: f083 aebb f79e feba f37c 643c 01af bebb
000000c0: 94ca 413a fd6a c63b 3dd5 82ba 01b4 d0bb
000000d0: c827 87bc 09d9 123c c2b0 14ba 83c9 5c3c
000000e0: 8eba 233c 9905 39bc 20af 51bb fe1e c43b
000000f0: 6c43 483c 2803 d63b 4c59 b93c 34a5 16bc
00000100: 298e 19bc 31d7 69bc 0340 e7ba 2b09 04bc
00000110: 6c20 5e3c c3c6 1b3c 5e4d ba3b d2a4 f83b
00000120: 9394 82bc 5770 753b e924 a23b 7c49 463c
00000130: 6143 abbc feac dd3b 7e9e d23b d4a1 813c
00000140: ce56 573c ac2d d1bb 1133 ac3b 8c62 6dbb
00000150: be88 1ebb c397 da3a c4c6 033c eb48 8cba
00000160: 1572 1dbc 7373 d9ba 25ff 913a 1968 fc38
00000170: 5bc1 7eba be6c fabb 0b13 be39 eb9c b73b
00000180: 1a32 7b39 3e37 913b 0d09 82bc 05f1 c33b
00000190: eaf4 28bc c913 87bb 6467 953c 5833 d1b9
000001a0: 7226 c33b d7f0 303c 1aa6 18bc 94c0 d73a
000001b0: 9650 dfbb 0daa a13b 538d 7ebb cab5 5ebb
000001c0: c6c1 afbc be60 c6bc 02b9 c7bb 8c8b 42bc
000001d0: cb39 39bc f4f4 44bc ee80 1c3c 4a88 dc39
000001e0: e21c 6dbb 6ad2 e2bb ec2a 9c3a db79 f3ba
000001f0: e532 ceba e12f db3b 2307 81bc 4c22 223b
00000200: 1d52 cbbb 3ba4 143b c38d 973b ae91 c7b9
00000210: 3ea4 b13a 0300 0f3a 7cb2 efbb 7f31 84ba
00000220: 2930 4e3b 311c 49bc 32f4 8e3c 72eb 6ebb
00000230: 59c6 2e3b a323 7a3b bf95 acba 1b73 69bc
00000240: e442 36bc d71f 55bb 353b 243c 7295 0d3c
00000250: 2002 a43b 13c8 eb3a fc3f 8a3a 626a 1d3b
00000260: 5a19 043c 21c7 8abc f1d4 8cbc 3944 ff3b
00000270: a37f 163c f20c 77bc 6adf f9bb 1062 ef3b
00000280: 7de3 9fba 37ca 353c a532 16bc 0613 a2bb
00000290: 3a7d 3bbb 025d 9cbc 2e54 fe3a c5d1 d43b
000002a0: 2322 12bc 3cb2 d7b9 2126 723b 9586 0f3c
000002b0: 2103 f1b9 e584 a83b 8be0 1abc f387 1cbc
000002c0: 2d50 853c 67e0 fdb8 1e2b bdbb ab7e 34bc
000002d0: 93de b839 94f9 8b3b 407a c63c 853b 96bb
000002e0: ad20 1d3c 9dd1 41ba ba95 103d 0a42 173b
000002f0: 8e2a 57bc 6e4a 28ba 561f 1a3c e605 093c
00000300: d9bd b53b 1808 6b3c 118d 73bb 13cf 103c
00000310: 5953 65bc 2d7e 9bbb f03b 02bc 3a55 933c
00000320: 70bf 413b 4839 d7ba 0c60 313c 41cf ba3b
00000330: 3015 1abc 53a3 eaba e4ad 6b3c cb4e 463b
00000340: 862d 053a 7e24 033c 2946 27ba 25c0 073c
00000350: 1ada 4cbb a9c6 b43c 9067 bfbc 8959 dfbb
00000360: 9899 edb9 f345 85bc d72f abbc 40f0 e6bb
00000370: 2275 173c 4bb3 f93b a8dc 8eba 586f a6bb
00000380: c112 ab3b ab05 9abb ac59 c33a ff15 c93c
00000390: c6e4 133c 427d 77bb ddc5 25bc 3b22 b53b
000003a0: 2356 c33a f043 3e3a ec02 523b f9f7 85bb
000003b0: a9d2 6c3b a3df bf3c 2939 5ebb 885d 583c
000003c0: 6aa8 25bb 354a 95bb 272a 8739 224a 95ba
000003d0: 48ac 48ba 6222 9abc 9f58 0b3c 5220 7cbb
000003e0: 711c 983b b634 24bb 6427 6cbc 5112 633c
000003f0: 2dd7 97bc 9710 9e3c 8a8a 02bb f696 d0b9

net.0.bias f4 [128]
0.009517263 0.010621364 -0.010312271 0.009093157 0.00996708 -0.011091155 0.010511023 0.011006629
-0.007700643 0.0103421835 -0.010973562 0.010061357 -0.010447739 -0.010427855 -0.01120102 -0.010416431
0.010520445 0.010611631 -0.0098916115 -0.0025721735 0.0051993253 0.010514361 0.011036123 0.010956845
-0.0100830905 -0.010238324 0.010701749 0.010701597 0.011071683 -0.010007591 -0.010975425 0.011252378
-0.010399288 -0.009853071 0.009006153 -0.010209529 -0.010839041 0.010733015 0.010250932 0.009833539
0.009977551 -0.011022686 -0.009941797 -0.00800379 0.01013069 0.0071492856 0.009990474 0.010774346
0.010429959 0.011082526 -0.0096364785 0.010919147 0.009754837 -0.0106614325 -0.010636915 0.010602377
0.010781549 0.010175733 0.010832918 0.010003317 -0.011308259 -0.01046889 -0.010592523 -0.010604176
0.009851665 -0.011200028 0.008396375 -0.00784804 -0.0101924455 0.010922684 -0.01054562 -0.007553272
-0.010505096 -0.010577678 0.010531303 -0.010230565 0.009906098 -0.0070533818 0.008108541 -0.011191978
0.009751319 0.010029251 -0.010210318 0.010405361 -0.010142568 -0.0102151465 0.010815691 0.008004208
0.0024932895 0.010387316 0.0097203 0.009678547 -0.010901823 0.0101343095 -0.010682015 0.010015083
-0.010258801 -0.011296071 0.011000748 0.010393659 -0.011247437 -0.009842048 0.0061426973 0.010908364
0.01056022 -0.009661285 0.009009108 0.010642178 0.010540946 -0.0098210955 -0.010687521 0.010242934
0.010932887 -0.010560509 -0.010118556 -0.009715087 0.010704511 -0.010427289 -0.011099433 -0.01039894
-0.010531502 -0.009969758 0.009795748 -0.009005527 0.00952935 0.0088706715 -0.010738266 0.008368688
00000000: 4bee 1b3c 3b05 2e3c cdf4 28bc 77fb 143c
00000010: f74c 233c adb7 35bc 6d36 2c3c 2655 343c
00000020: ad55 fcbb 4372 293c 74ca 33bc 64d8 243c
00000030: fe2c 2bbc 98d9 2abc 7c84 37bc aea9 2abc
00000040: f25d 2c3c 68dc 2d3c 6d10 22bc e991 28bb
00000050: 1a5f aa3b 6d44 2c3c dbd0 343c 5784 333c
00000060: 8c33 25bc a5be 27bc 6356 2f3c c055 2f3c
00000070: 0166 353c e1f6 23bc 45d2 33bc e55b 383c
00000080: c661 2abc c66e 21bc 8b8e 133c de45 27bc
00000090: 3c96 31bc 87d9 2f3c 86f3 273c da1c 213c
000000a0: e278 233c 7f98 34bc ebe2 22bc 5422 03bc
000000b0: 32fb 253c 8e44 ea3b 16af 233c e286 303c
000000c0: 6be2 2a3c 7c93 353c 52e2 1dbc 39e6 323c
000000d0: c0d2 1f3c 4aad 2ebc 7546 2ebc 98b5 2d3c
000000e0: 18a5 303c 1eb8 263c 8d7c 313c f4e4 233c
000000f0: 4746 39bc b585 2bbc 438c 2dbc 23bd 2dbc
00000100: e168 213c 5280 37bc f390 093c 1195 00bc
00000110: 37fe 26bc 0ff5 323c 89c7 2cbc 7081 f7bb
00000120: 911d 2cbc ff4d 2dbc 7c8b 2c3c 1a9e 27bc
00000130: 304d 223c 0e20 e7bb b0d9 043c 8f5e 37bc
00000140: ffc3 1f3c ba51 243c 2d49 27bc 3f7b 2a3c
00000150: 032d 26bc 6e5d 27bc 4c34 313c 1524 033c
00000160: 7566 233b 902f 2a3c e541 1f3c c592 1e3c
00000170: 8f9d 32bc 600a 263c 9e03 2fbc 4d16 243c
00000180: 8814 28bc 2813 39bc 7b3c 343c 2a4a 2a3c
00000190: 2c47 38bc 8b40 21bc ae48 c93b ffb8 323c
000001a0: c604 2d3c 5e4a 1ebc f09a 133c 885c 2e3c
000001b0: efb3 2c3c a9e8 20bc b61a 2fbc fbd1 273c
000001c0: da1f 333c fc05 2dbc 4dc8 25bc 072c 1fbc
000001d0: f961 2f3c 38d7 2abc 65da 35bc 5160 2abc
000001e0: 528c 2cbc 3258 23bc 587e 203c eb8b 13bc
000001f0: fe20 1c3c 4b56 113c 8def 2fbc d21c 093c

net.3.weight f4 [64, 128]
0.011450872 0.0081408955 -0.003479365 0.008302228 -0.010849625 -0.019096171 0.01448828 -0.0017582854
0.009253116 0.019721882 -0.001187175 0.004375502 0.009505135 -0.013676384 -0.006423706 0.005562515
-0.008615751 0.0092677055 0.0021230178 -0.004354516 -0.002739652 0.008830167 0.018368201 0.0049822256
-0.004537281 0.013601752 -0.0020628169 -0.011415577 0.0055971686 -0.0041416567 -0.0014633486 -0.0025845347
0.00020096122 -0.012774201 0.017730763 -0.01288847 0.006907259 0.014374959 0.016549911 -0.011757472
0.002076132 0.006898721 -0.009038798 0.00026574873 -0.004443572 0.012262346 0.008184468 -0.016696936
0.0054885857 -0.0013717108 -0.008113982 -0.0040579117 0.013357535 -0.00027794842 0.0033505296 -0.009176461
0.013489043 0.010798568 -0.0101111615 0.008056385 -0.0031133431 -0.01078416 -0.021622939 -0.012773644
-0.004516709 -0.013776124 -0.0074171997 0.0076242248 -0.0070999297 0.0048923795 -0.0029847198 -0.0099893315
0.008397697 -0.0034048029 0.004250374 -0.010019802 0.007911103 -0.008096482 -0.00036334962 -0.0048561273
0.002811209 -0.0026613888 -0.018892322 0.00030605186 -0.015135413 0.004973024 -0.0031565318 0.002738706
0.018370155 0.0047512753 -0.0034225439 0.02885908 -0.019844469 0.0039447136 0.014001584 0.005434316
-0.0069073634 -0.00599846 -0.008569642 0.0114153735 -0.0031579284 -0.016221266 0.00010471573 0.010562805
0.00798221 -0.010812462 0.021543296 0.0028010271 0.010816334 -0.015276241 -0.022126561 0.0013273169
0.0065863864 -0.012825372 -0.01673055 0.0027210184 0.011252784 -0.022312082 -0.011604578 -0.027298825
-0.014791015 -0.017956588 -0.0053132707 -0.02588808 0.0057296017 -0.0043059606 -0.0008197602 0.0040580756
0.0015956853 0.00883197 -0.026432069 -0.006402575 0.009082836 0.004931671 0.008731045 0.016141329
-0.0003795153 0.00243017 -0.012836171 -0.0015964587 -0.009275576 -0.003665779 -0.0026417328 -0.023336591
0.0018810951 -0.014267936 -0.0071537616 -0.0016346269 0.008207776 -0.0074856877 0.0003774324 0.011996921
-0.009708064 0.008542631 0.024781428 0.011379592 0.008484182 -0.0036964687 -0.008937681 0.009066112
-0.00022765428 -0.012171039 -0.006455232 -0.009743424 0.010555571 0.004139037 0.019264376 -0.0037467275
0.0058046053 -0.030872053 -0.016449364 -0.0023099324 0.004922673 -0.015228703 0.0013645364 0.012279368
-0.013530766 0.014864313 -0.007861684 0.010067977 0.028881421 -0.026324188 -0.002462871 0.0011492611
-0.011348906 0.0134267155 0.0029680813 -0.006025207 -0.011243288 -0.0028160815 0.010062871 0.008701942
-0.0024200014 -0.0057167085 -0.0052302494 0.00090400083 0.009667397 0.009753019 -0.0056704986 0.001719569
-0.016301356 -0.00061995484 -0.0038614415 0.0023920785 -0.0036026048 -0.0007191413 0.0020933745 0.0019810086
0.012585987 -0.0058093807 -0.021235846 -0.01730787 -0.012254432 -0.020529715 0.006375109 -0.0026424793
0.004352681 -0.010856521 -0.017611252 -0.00035967777 -0.010594243 -0.0003310353 -0.002021614 0.0061328863
0.0014766112 -0.0071424725 0.019645356 0.014481786 -0.020628618 -0.02053942 0.026419317 0.003429071
0.00023849748 -0.0016430069 -0.01516437 0.017211916 0.025033351 -0.0144465575 -0.002645198 0.0052905423
-0.015292649 -0.00089569256 -0.026340261 -0.012665802 -0.0013647252 -0.010765226 -0.014421759 0.0058921985
-0.0059504416 -0.0072663 0.009958353 -0.010662665 -0.0086810235 0.0139582995 -0.01872454 -0.008296909
00000000: 709c 3b3c 6461 053c 0f06 64bb 1106 083c
00000010: a0c2 31bc 936f 9cbc 4060 6d3c 4576 e6ba
00000020: 629a 173c c98f a13c fc9a 9bba 5f60 8f3b
00000030: 6dbb 1b3c ea12 60bc f47d d2bb c245 b63b
00000040: 1429 0dbc 93d7 173c 5422 0b3b 54b0 8ebb
00000050: bc8b 33bb 68ac 103c e978 963c f041 a33b
00000060: 79ad 94bb e2d9 5e3c 5330 07bb 6608 3bbc
00000070: 7468 b73b bcb6 87bb d5cd bfba 4c61 29bb
00000080: 1eb9 5239 e24a 51bc 1b40 913c 292a 53bc
00000090: 4a56 e23b f384 6b3c ae93 873c 69a2 40bc
000000a0: b70f 083b ab0e e23b 7717 14bc 3154 8b39
000000b0: 629b 91bb 02e8 483c 2618 063c 03c8 88bc
000000c0: 98d9 b33b faca b3ba 82f0 04bc 3bf8 84bb
000000d0: 90d9 5a3c 9bb9 91b9 8f94 5b3b de58 16bc
000000e0: 2601 5d3c 7aec 303c 49a9 25bc eefe 033c
000000f0: 3b09 4cbb 0cb0 30bc 9722 b1bc 8c48 51bc
00000100: e700 94bb 41b5 61bc fb0b f3bb a2d4 f93b
00000110: 87a6 e8bb 4150 a03b 4a9b 43bb 4baa 23bc
00000120: 7e96 093c 1d23 5fbb b946 8b3b 182a 24bc
00000130: 929d 013c 1ba7 04bc f67f beb9 2620 9fbb
00000140: 433c 383b b26a 2ebb 12c4 9abc 9675 a039
00000150: 86fa 77bc c0f4 a23b d1dd 4ebb dd7b 333b
00000160: 027d 963c 96b0 9b3b c24c 60bb e169 ec3c
00000170: de90 a2bc a842 813b e666 653c 5912 b23b
00000180: 2a57 e2bb bb8e c4bb af67 0cbc 8c07 3b3c
00000190: 3ff5 4ebb 76e2 84bc d49a db38 9e0f 2d3c
000001a0: d1c7 023c c126 31bc 917b b03c 7091 373b
000001b0: fe36 313c 3349 7abc c342 b5bc 5df9 ad3a
000001c0: 9dd2 d73b 8221 52bc 820e 89bc 1d53 323b
000001d0: 995d 383c d4c7 b6bc 2121 3ebc c9a1 dfbc
000001e0: 0356 72bc b219 93bc f21a aebb 3d13 d4bc
000001f0: 62bf bb3b 0419 8dbb 2de5 56ba 9bf9 843b
00000200: 5026 d13a f8b3 103c 1188 d8bc b1cc d1bb
00000210: 2dd0 143c db99 a13b a80c 0f3c d23a 843c
00000220: aef9 c6b9 7d43 1f3b ce4e 52bc 4440 d1ba
00000230: 96f8 17bc 913d 70bb ec20 2dbb 612c bfbc
00000240: 148f f63a 10c4 69bc 1a6a eabb fa40 d6ba
00000250: e879 063c 804a f5bb 1fe2 c539 bc8e 443c
00000260: 920e 1fbc 64f6 0b3c 6c02 cb3c 7871 3a3c
00000270: 3d01 0b3c 7440 72bb 5a6f 12bc 088a 143c
00000280: 7bb6 6eb9 0a69 47bc 6986 d3bb e2a2 1fbc
00000290: 46f1 2c3c c2a0 873b 53d0 9d3c a88b 75bb
000002a0: 8f34 be3b 63e7 fcbc d1c0 86bc 3c62 17bb
000002b0: 604e a13b cf81 79bc 3eda b23a 672f 493c
000002c0: 25b0 5dbc 7389 733c 4bce 00bc 28f4 243c
000002d0: bb98 ec3c d3a5 d7bc 1e68 21bb cea2 963a
000002e0: c3f0 39bc bafb 5b3c 2484 423b 1a6f c5bb
000002f0: c535 38bc 028e 38bb bdde 243c 9792 0e3c
00000300: e398 1ebb 3a53 bbbb 8362 abbb 78fa 6c3a
00000310: 0064 1e3c 20cb 1f3c 97cf b9bb 2963 e13a
00000320: 6c8a 85bc 7784 22ba 3d10 7dbb 6bc4 1c3b
00000330: ae19 6cbb c184 3cba ff30 093b cfd3 013b
00000340: 7535 4e3c 9e5c bebb ccf6 adbc 3cc9 8dbc
00000350: d0c6 48bc ef2d a8bc 4ae6 d03b 722d 2dbb
00000360: efa0 8e3b 8ddf 31bc 7945 90bc 2293 bcb9
00000370: 7a93 2dbc ce8e adb9 0e7d 04bb 61f6 c83b
00000380: da8a c13a 670b eabb 4cef a03c 0345 6d3c
00000390: 59fd a8bc 4942 a8bc 536d d83c 44ba 603b
000003a0: 2e15 7a39 2a5a d7ba fa73 78bc 0100 8d3c
000003b0: be12 cd3c 41b1 6cbc 0f5b 2dbb 495c ad3b
000003c0: 058e 7abc e9cc 6aba 88c7 d7bc 3984 4fbc
000003d0: 94e0 b2ba a160 30bc 3e49 6cbc 5813 c13b
000003e0: ecfb c2bb 241a eebb 5c28 233c 75b2 2ebc
000003f0: da3a 0ebc 5ab1 643c 3564 99bc c2ef 07bc

net.3.bias f4 [64]
0.008025572 0.0075075272 -0.007332402 0.007935196 -0.00732734 0.009312408 0.007516886 -0.0073100934
0.0066571 -0.0086869355 0.0078104613 -0.007383519 -0.0062224763 0.008840639 0.007705252 0.0070252954
0.0073395846 -0.007593918 -0.0082317805 0.006748135 -0.007923123 -0.007312334 -0.009019299 0.007572103
-0.007972087 0.006996976 0.00724588 -0.006946584 0.007565013 -0.0074196626 -0.0083708875 0.008371547
0.008854503 -0.007924222 0.007946554 -0.008903281 -0.008484653 0.0073683537 0.007257181 0.0067334697
0.007550063 -0.00719063 -0.008607636 -0.006770697 -0.008378641 0.007595815 -0.008511203 -0.007668435
-0.00744809 0.0070027267 0.0076732775 -0.0071854983 0.008802323 0.008856331 -0.0066860733 -0.007731612
-0.007901176 -0.0074717137 0.008555052 0.0064313537 -0.0075222393 0.008886533 -0.008996119 -0.006616246
00000000: b07d 033c b401 f63b a544 f0bb a002 023c
00000010: 2f1a f0bb 1293 183c 3650 f63b 8289 efbb
00000020: cd23 da3b a653 0ebc e6ee ff3b 72f1 f1bb
00000030: eae5 cbbb 54d8 103c 577c fc3b 7334 e63b
00000040: e680 f03b 67d6 f8bb 97de 06bc 761f dd3b
00000050: fdcf 01bc 4e9c efbb afc5 13bc 671f f83b
00000060: 5b9d 02bc e446 e53b d96e ed3b 2ca0 e3bb
00000070: eee3 f73b a420 f3bb 0c26 09bc d028 093c
00000080: 7a12 113c 99d4 01bc 4332 023c 11df 11bc
00000090: 3703 0bbc 3b72 f13b a6cd ed3b 70a4 dc3b
000000a0: 8566 f73b 609f ebbb 0b07 0dbc b9dc ddbb
000000b0: 9146 09bc 51e6 f83b 9372 0bbc 7f47 fbbb
000000c0: 1b0f f4bb 2177 e53b 1e70 fb3b 5474 ebbb
000000d0: 9e37 103c 251a 113c d916 dbbb 7659 fdbb
000000e0: ef73 01bc 47d5 f4bb 7d2a 0c3c 1bbe d23b
000000f0: 1e7d f6bb d298 113c 7564 13bc 18cd d8bb

net.6.weight f4 [32, 64]
0.03112839 -0.00081649434 0.0052006207 0.00085333356 0.004541027 0.005604626 0.026148215 -0.033962578
0.015205793 -0.037478834 0.011703909 -0.0145698 0.03572277 -0.0024078402 0.0077856067 -0.010098272
0.03809669 -0.0010400628 -0.011701242 0.01716727 -0.036074817 -0.028661113 -0.033403575 -0.016209204
-0.01778223 0.009929404 -0.0091150245 -0.026579496 -0.004454407 -0.0050799893 0.0085605895 0.0077762958
0.00022561272 -0.011172337 0.0014103665 -0.0025072305 0.0012013904 0.012968341 0.00042807736 0.0038485755
0.013738823 -0.00043839158 -0.0024516897 0.008958298 -0.021670569 -0.0030233578 -0.012401508 -0.01350088
0.007633182 0.0010233545 0.016855653 -0.01764455 -0.007146717 0.012153202 -0.022764144 0.00022320196
-0.039830834 0.0138272755 0.0093551595 0.017850386 -0.012300081 0.022627296 -0.019706441 -0.031698897
0.01165136 0.016305037 0.001153225 0.007867153 -0.03642577 0.040533774 -0.010239722 -0.007994504
0.006416541 0.00096368784 -0.012485435 -0.010134046 -0.011975475 -0.009647857 -0.021305587 0.028382437
0.0006336056 -0.02741407 0.0135190105 0.008830683 -0.00035327038 -0.036193732 -0.027836785 -0.012515104
-0.02241353 -0.003306754 -0.017528994 -0.00705191 0.0095155 -0.032432742 -0.0068114134 -0.015721772
0.015909554 -0.02027688 -0.008634733 -0.011372075 -0.016632969 0.011978629 0.028874809 0.019379899
0.025015766 -0.029403806 -0.009128413 -0.005758512 -0.018267823 0.025026748 -0.013592915 0.018165663
-0.0035932455 0.021611389 0.01177257 -0.014126015 0.011404558 0.00018083474 -0.017880663 -0.021220993
-0.004655744 -0.019903349 0.0055894656 0.01133212 0.0152121745 0.011929095 0.013168345 -0.01750687
-0.0008380956 -0.02547837 -0.017256465 -0.020250097 -0.013620731 -0.012900504 -0.008158051 -0.012670698
0.015368327 0.024061594 0.007385806 0.0234208 -0.0036146515 -0.03575217 -0.014465494 -0.014171334
0.0066423053 0.03140225 -0.0037817007 -0.039576173 -0.0031780438 -0.0076032965 0.014954265 -0.012615891
-0.007902741 -5.4560707e-05 -0.02118448 0.011988749 -0.016569844 0.008822963 0.0043405816 0.01888923
-0.020045524 -0.0051703607 -0.037735213 0.018931396 -0.0018533188 0.005623517 -0.012495658 -0.03266838
0.023911566 -0.020665541 0.02430492 0.014002607 0.015117959 0.012147832 0.029895715 0.023502348
0.00901495 0.0021237095 -0.01597137 -0.02100624 -0.002251084 -0.006191313 0.012902905 0.010321306
0.005632922 0.02208208 -0.0153853055 -0.001755567 0.017626802 -0.008419381 -0.00676721 -0.0009359865
-0.01815946 -0.00610947 -0.00082954107 -0.0018391574 -0.006008961 0.015838407 -0.017377596 -0.0017206627
-0.004819763 0.009752837 -0.0011054119 0.014910055 0.0021170522 -0.045112535 -0.0063160374 -0.019710133
-0.0076831565 -0.024388192 0.018559024 -0.014548307 0.022615809 0.008851301 -0.009798615 -0.018293412
0.0061897887 -0.007198595 -0.007426619 0.0019871872 -0.02264187 -0.007319803 0.03607718 -0.0072826445
-0.01481334 0.009400542 -0.00066346914 0.011899497 -0.018716747 -0.009327013 -0.027329618 0.026943866
-0.022186503 0.0045263795 0.015949072 0.0150845805 0.00023010388 -0.008427237 -0.0017520617 0.0031099925
0.0007328926 -0.0033188777 -0.018997421 -0.004596123 -0.0005542709 -0.008275393 0.027534079 0.024809165
0.003317233 0.027109813 0.00071241346 -0.019691518 -0.01006669 -0.019511793 0.009919292 0.027328
00000000: f700 ff3c 020a 56ba f869 aa3b 3fb2 5f3a
00000010: e5cc 943b 03a7 b73b c834 d63c 581c 0bbd
00000020: b821 793c 6883 19bd c1c1 3f3c 2cb6 6ebc
00000030: 0a52 123d dbcc 1dbb 671e ff3b 3973 25bc
00000040: 460b 1c3d b752 88ba 91b6 3fbc 60a2 8c3c
00000050: 30c3 13bd b6ca eabc 30d2 08bd 2ac9 84bc
00000060: 0aac 91bc f0ae 223c 2f57 15bc 3ebd d9bc
00000070: 46f6 91bb 0a76 a6bb b741 0c3c 4cd0 fe3b
00000080: 7492 6c39 2e0c 37bc 0cdc b83a 5950 24bb
00000090: f977 9d3a 2a79 543c 926f e039 6238 7c3b
000000a0: cd18 613c ecd7 e5b9 87ac 20bb d3c5 123c
000000b0: 7a86 b1bc 8723 46bb b22f 4bbc cc32 5dbc
000000c0: c61f fa3b 1422 863a de14 8a3c 4e8b 90bc
000000d0: 022f eabb 391e 473c df7b babc 520b 6a39
000000e0: a825 23bd cc8b 623c 6246 193c f93a 923c
000000f0: 4786 49bc e15c b93c 676f a1bc b4d6 01bd
00000100: 59e5 3e3c 2492 853c cf27 973a 3be5 003c
00000110: 3033 15bd be06 263d 82c4 27bc 61fb 02bc
00000120: d941 d23b ff9f 7c3a b68f 4cbc 4509 26bc
00000130: c834 44bc 0c12 1ebc 0e89 aebc 4982 e83c
00000140: 8d18 263a 7993 e0bc d77e 5d3c 92ae 103c
00000150: 2637 b9b9 e13f 14bd f809 e4bc 270c 4dbc
00000160: 949c b7bc 20b6 58bb f798 8fbc b513 e7bb
00000170: e6e6 1b3c 32d8 04bd 4732 dfbb f2ca 80bc
00000180: c154 823c b31b a6bc b278 0dbc f151 3abc
00000190: dd41 88bc 0342 443c dd8a ec3c 98c2 9e3c
000001a0: dded cc3c 40e0 f0bc 578f 15bc e6b1 bcbb
000001b0: 67a6 95bc e504 cd3c d1b4 5ebc 28d0 943c
000001c0: a87c 6bbb 5e0a b13c bde1 403c cd70 67bc
000001d0: 2fda 3a3c 759e 3d39 787a 92bc a6d7 adbc
000001e0: 368f 98bb 590c a3bc d627 b73b 5baa 393c
000001f0: 7c3c 793c 4072 433c 0bc0 573c 916a 8fbc
00000200: a5b3 5bba 04b8 d0bc 6e5d 8dbc 88e3 a5bc
00000210: 7d29 5fbc a35c 53bc 59a9 05bc c298 4fbc
00000220: 6fcb 7b3c d21c c53c a204 f23b fadc bf3c
00000230: cae3 6cbb de70 12bd ae00 6dbc e22e 68bc
00000240: b2a7 d93b a59f 003d 69d6 77bb a01a 22bd
00000250: ba46 50bb 1325 f9bb bc02 753c e2b2 4ebc
00000260: 807a 01bc 1dd8 64b8 138b adbc 756c 443c
00000270: 7bbd 87bc 308e 103c 703b 8e3b 96bd 9a3c
00000280: 8336 a4bc 216c a9bb 3d90 1abd 0416 9b3c
00000290: 0feb f2ba 7b45 b83b 97ba 4cbc 47cf 05bd
000002a0: 30e2 c33c c84a a9bc 1d1b c73c 316b 653c
000002b0: 51b1 773c b307 473c dce7 f43c ff87 c03c
000002c0: 71b3 133c ef2d 0b3b 64d6 82bc 4715 acbc
000002d0: ec86 13bb 7fe0 cabb b566 533c b21a 293c
000002e0: 6094 b83b 7ae5 b43c a612 7cbc 0e1b e6ba
000002f0: 1566 903c 72f1 09bc 79bf ddbb fe5c 75ba
00000300: 26c3 94bc f331 c8bb 8f75 59ba e20f f1ba
00000310: d1e6 c4bb 8cbf 813c 765b 8ebc dc87 e1ba
00000320: 1aef 9dbb 5dca 1f3c 78e3 90ba 4e49 743c
00000330: 3ebe 0a3b ecc7 38bd c3f6 cebb 2577 a1bc
00000340: fdc2 fbbb bfc9 c7bc 1809 983c 065c 6ebc
00000350: ca44 b93c 0c05 113c 5f8a 20bc 11dc 95bc
00000360: b6d3 ca3b 31e2 ebbb ff5a f3bb 783b 023b
00000370: 717b b9bc f5da efbb aac5 133d 40a3 eebb
00000380: a7b3 72bc bb04 1a3c a9ec 2dba 1cf6 423c
00000390: dd53 99bc 54d0 18bc 5de2 dfbc 62b9 dc3c
000003a0: 78c0 b5bc 0652 943b a1a7 823c 5125 773c
000003b0: 0a48 7139 6512 0abc 6fa5 e5ba 04d1 4b3b
000003c0: 971f 403a 8781 59bb 7ba0 9bbc 139b 96bb
000003d0: 7e4c 11ba 8495 07bc 268f e13c 973c cb3c
000003e0: ef65 593b 6615 de3c 42c1 3a3a 1b50 a1bc
000003f0: c2ee 24bc 32d7 9fbc 8784 223c f8de df3c

net.6.bias f4 [32]
0.0058357087 0.00571532 -0.00704965 -0.0056699747 -0.0062281825 -0.005598937 -0.0062141623 -0.00604919
-0.0056218933 0.006881836 0.005576343 -0.006745704 0.0064553423 -0.0057886792 0.005307251 -0.0055998773
-0.0059936317 0.0055174595 -0.006603494 0.0080482485 0.0059099016 -0.0054834415 0.006198156 0.0058184587
-0.0075106747 0.0056624874 0.0057437583 0.006173036 -0.0055199885 0.0059274784 0.0054994156 -0.0059960764
00000000: 7939 bf3b 9447 bb3b c000 e7bb 32cb b9bb
00000010: c815 ccbb 4a77 b7bb 2ca0 cbbb 4938 c6bb
00000020: dc37 b8bb 0681 e13b c1b9 b63b 110b ddbb
00000030: 5687 d33b f6ae bdbb 73e8 ad3b 2d7f b7bb
00000040: 3a66 c4bb cecb b43b 1f62 d8bb cddc 033c
00000050: d9a7 c13b 71ae b3bb e719 cb3b c5a8 be3b
00000060: 1b1c f6bb 638c b93b 2336 bc3b 2e47 ca3b
00000070: 05e1 b4bb 4b3b c23b 7134 b43b bc7a c4bb

net.9.weight f4 [1, 32]
0.025736248 0.03111109 -0.012731532 -0.03553997 -0.018053513 -0.03862562 -0.018193895 -0.021075211
-0.033849336 0.013626285 0.043735422 -0.014242853 0.017103167 -0.028701214 0.07836104 -0.041379683
-0.024227101 0.046416804 -0.014657403 0.010329184 0.022367066 -0.05133231 0.019854682 0.0261032
-0.012285555 0.033143576 0.028888723 0.018992161 -0.04807187 0.025612691 0.053244565 -0.017691059
00000000: d3d4 d23c afdc fe3c ea97 50bc 5c92 11bd
00000010: f6e4 93bc e635 1ebd 5d0b 95bc eca5 acbc
00000020: 9aa5 0abd c840 5f3c ea23 333d db5a 69bc
00000030: f11b 8c3c cf1e ebbc c17b a03d be7d 29bd
00000040: ea77 c6bc 8c1f 3e3d 9b25 70bc bd3b 293c
00000050: 233b b73c d441 52bd 49a6 a23c 61d6 d53c
00000060: 5a49 49bc 8fc1 073d 0ba8 ec3c 7395 9b3c
00000070: 02e7 44bd b5d1 d13c f916 5a3d d7ec 90bc
