ncde/best_model_rde.pth (torch, 368911 bytes, 5 tensors)

net.0.weight f4 [128, 650]
00000000: ed63 d23b f5f8 6ebc ffa8 04bd 5916 f9bc
00000010: 1faa 4dba c29c 48bc 1343 0fbd 25a8 5f3c
00000020: 352d f93b b75e 7a3c 4d85 febc 8286 fc3b
00000030: 8093 07bd 1696 b3bc 0b58 b9bc 6165 b3bc
00000040: 3140 79bc 0b26 1e3d 2eb0 1d3d c484 d6bc
00000050: 36e8 8abb 62bd 1c3c 9546 883c ba05 46bc
00000060: 3982 99bc c281 0d3d 3d95 203c 2793 05bd
00000070: f60d bcba 08ea ad3c 0239 ed3c 1abc 2b3c
00000080: 333e 1dbd 5fb9 c43b 9aed e0bc 6a5b 0e3d
00000090: c02a 89bc e24e d83c 56c4 dd3c 5cbb 6ebc
000000a0: dac8 0cbc d610 453b c2ed 683c 8f48 18bd
000000b0: 2f0d e1bc ec67 423b f83f 1bbd eaf1 a4bc
000000c0: 634c 8bbb 8c18 02bd 72c6 d63c a10d 93bb
000000d0: 823f 2fbc ac68 a63c ffc1 3abc 9fa8 44bc
000000e0: 5a68 8b3b c0a8 d53b 5bf0 043d 778d e6bc
000000f0: 66de 0cbd 09aa d2bc e635 2f3c 2a59 11bd
00000100: 24b3 f4bc 27da 4bbc 3bf4 b1bc b1d4 aabc
00000110: 1177 afbb 591e 6ab9 4178 aabc 8aa4 3abc
00000120: 70ba 3d3b f3ee f33b 1eee d7bb 685a bc3b
00000130: 1274 0f3d 9f44 fdbc c4e1 34bb 6b14 cf3c
00000140: 2722 14bc e6d6 adbc 75d1 1c3d 90f0 87bc
00000150: 0b21 0bbd 3b70 fb3c 8432 e7bb af27 17bd
00000160: 97f6 9a3c 544c 0f3c ed82 1fbd 7895 eabb
00000170: 3acc c73c 8794 f6bc 9c8f d2bc 85c4 cebc
00000180: ed77 163d b7cb 8f3c 2592 893b c8d9 d939
00000190: 48f3 bbbc 8cbc 983c a700 183d f8c7 bd3b
000001a0: d105 9ebc 0cbe 10bc a911 1bbd f069 01bc
000001b0: d2a3 2d3c 528b ed3c a444 f4bc 9254 64bc
000001c0: d538 163d 9767 1dbb 3c8f 1d3d 6e3d 80bc
000001d0: 2d77 e7bc 9816 1dbd c63f e5bc 3b3c 523b
000001e0: cce4 8a3a d19f fd3b be70 a53c bb89 bbbc
000001f0: 5672 9c3c d23e a8bc a82f 15bb ad38 0cbd
00000200: efb1 8fbb 4aa5 213c 4328 ebbc 2826 473c
00000210: 8018 293c 5501 67bb f6f5 cbb7 eb83 3d3b
00000220: 9fa6 fb3c 954b 1c3d 7020 983c aced 843c
00000230: e17a d2bc aa4c 523c 0f95 f93c 76e6 2f3c
00000240: cdb8 8fba f95c 53bc 470e 8d3c 598e ebbc
00000250: bab5 af3c f0db a23a b036 c4bc 5d03 babc
00000260: 1096 103d 2a4e a03c 8adb 8a3c 7404 f53c
00000270: e03f bfbc e433 36bc 6117 9b3c 1c0f e4bb
00000280: 69de a6bc dbe6 0d3d 51ec 07bd 460c ac3b
00000290: dbf9 1d3d 6f73 c8ba f3a3 12bd c9d7 443c
000002a0: 93be 66bc f87b a4bc f724 1cbd c236 ffbc
000002b0: 516e 073d 5180 65ba 7f72 04bd a3f4 1abd
000002c0: 23ae 803b 2d73 dbbc 56bc a5bc 65d5 f43c
000002d0: 52d6 5e3c 1d56 8a3c 1b8b 3c3c b8bf ad3c
000002e0: cd11 cf3b ced5 e53c 9a7b 68bb ea3b 44bc
000002f0: a05f b83b 6f11 babc 43e4 0b3d 3a07 0c3c
00000300: a771 7dbc 165b 743c da2f 733c df66 66bc
00000310: ead1 f13c 323d 1cbd c811 2a3c 79cb 543c
00000320: 37ea 7c3c 8691 14bd 864a 8fbc abf4 a9bc
00000330: 0ccf 063c 1312 fa3b 1912 adbc d5f1 c83c
00000340: d4e9 ba39 45e3 8e39 19fb 903c 771f 0e3a
00000350: adaf a13c beda dbbc 0bb1 8bbc 2cb5 bcbc
00000360: f6a4 64bc 509b b73b cd35 62ba 06c1 b4bc
00000370: 4ae2 0fbd 0022 cf3b 09d9 07bd 3d5b de3c
00000380: 5d65 16bb f440 ca3c 5c3c 303c c69f 0fbb
00000390: cdec 183d 1c94 d8bc 6abe 62bc 5f2d 0abd
000003a0: 8f24 1dbd f0c1 08bd 1a81 873c 881c 80bc
000003b0: 6a36 1b3d ac89 733c 5809 b93b a791 e6bc
000003c0: 0fdc dfbc bb6f a6bc e9b4 593c 53ac 363c
000003d0: 8219 08bd e3fd 09bd d22e 153d c662 0ebb
000003e0: bdfe ce3c 9ff4 a7bc 14e6 b03b 7dba c6bc
000003f0: ee15 a33c dfdf 523c 52b5 073d 01d6 fb3b
0.0064206035 -0.014585723 -0.03238773 -0.030406164 -0.00078454794 -0.012244405 -0.034976076 0.013650929
0.007604266 0.015281371 -0.031069422 0.0077064643 -0.03309965 -0.021922152 -0.02262499 -0.021898927
-0.015213058 0.0386105 0.038498096 -0.026186354 -0.0042391075 0.009566637 0.016635219 -0.012086326
-0.018738853 0.034547575 0.009801206 -0.03261104 -0.0014347422 0.021229759 0.028957848 0.010481859
-0.038389396 0.0060035433 -0.027457047 0.034755148 -0.016744018 0.026404802 0.02707116 -0.014571037
-0.008592809 0.003006985 0.014216842 -0.037178572 -0.027472107 0.0029663993 -0.037902802 -0.020134885
-0.0042510494 -0.03176169 0.026217673 -0.0044877087 -0.010696294 0.020313583 -0.011398791 -0.012003093
0.004254383 0.0065203607 0.032455783 -0.028143628 -0.034391783 -0.025715845 0.010694003 -0.035485424
-0.029870577 -0.012442148 -0.021722903 -0.020853372 -0.00535477 -0.00022327284 -0.020809295 -0.011391768
0.0028950237 0.0074442565 -0.006589665 0.005748082 0.035022803 -0.03091651 -0.0027600387 0.02527829
-0.009041346 -0.021220636 0.03828569 -0.016594201 -0.03396706 0.030693164 -0.0070555825 -0.03690308
0.018916411 0.008746225 -0.03894322 -0.0071589313 0.024389375 -0.03010012 -0.025703244 -0.025240192
0.036735464 0.017553193 0.00419833 0.00041551725 -0.022943154 0.018644594 0.037109997 0.0057916604
-0.019289883 -0.008834373 -0.03785864 -0.007898793 0.01059814 0.028997097 -0.029817887 -0.013936179
0.036675293 -0.0024018043 0.038466677 -0.015654292 -0.02825507 -0.038351625 -0.027984511 0.0032079357
0.0010596751 0.007739999 0.020195361 -0.022892823 0.019097488 -0.020537768 -0.0022764 -0.034233738
-0.004385225 0.009866068 -0.028705722 0.012155093 0.010320783 -0.0035248597 -2.431402e-05 0.002891774
0.0307191 0.03815802 0.018570155 0.016226612 -0.025693359 0.012835661 0.030466584 0.0107360985
-0.0010965109 -0.012900584 0.017218722 -0.0287544 0.021448959 0.0012425166 -0.023951858 -0.022706682
0.03529936 0.019568522 0.016950388 0.02990935 -0.023345888 -0.01112077 0.018932046 -0.006959809
-0.020369725 0.03464399 -0.033184353 0.0052504865 0.03856836 -0.0015293191 -0.035800885 0.012014338
-0.014083522 -0.020078644 -0.03812119 -0.03115404 0.03306419 -0.00087547774 -0.032335754 -0.03783096
0.0039270087 -0.026788319 -0.020231407 0.02988691 0.013600903 0.016886765 0.011507775 0.021209583
0.0063192607 0.028056052 -0.0035474063 -0.011977175 0.0056266338 -0.022713391 0.034153234 0.008546645
-0.015468991 0.014914295 0.014842952 -0.014062612 0.02951904 -0.038144298 0.010380216 0.012987965
0.015436701 -0.036271594 -0.01749159 -0.02074655 0.008228075 0.007631549 -0.021126794 0.024529377
0.000356509 0.0002725368 0.017697858 0.0005421559 0.019737089 -0.026837703 -0.017052194 -0.023035608
-0.013955345 0.0056032315 -0.0008629233 -0.022064697 -0.035127915 0.006321192 -0.033165965 0.027143115
-0.00229486 0.024689175 0.010756578 -0.00219153 0.037335206 -0.026437812 -0.013839344 -0.033734675
-0.038364943 -0.03338808 0.016541053 -0.015638605 0.03789369 0.0148643665 0.005646866 -0.028145624
-0.027326612 -0.02031695 0.013287761 0.011149484 -0.03322745 -0.03368939 0.036421604 -0.0021726354
0.025267953 -0.020502387 0.005398521 -0.024258846 0.019907918 0.012870758 0.033131905 0.0076854234

net.0.bias f4 [128]
00000000: c30d a0bb 16bc 9b3c 7b7c 2bbc 0cdf 2bb9
00000010: d04f 98bc a94b 083d 0d8a b0bc 6c7d de3b
00000020: e724 d33b 2acb dfbc ee00 6a3c f7dd 153c
00000030: 4594 19bd 924b afbc 1d5d e73a 9cee a5bc
00000040: fc88 efbc 1b9a 15bd 4f1c bc3c 8b1b b93c
00000050: b67a f53b ba29 993c ada6 bc3c b6de 543b
00000060: 2b23 d43c 059c 0ebc fa06 d23c 6cb1 e63c
00000070: 7b8f 193d aed4 1e3c 6fea 023d 0459 f13b
00000080: b5fe a1bc 48f0 bdbc 626c 0b3d b0c3 48bb
00000090: 8ca1 07bd 88c2 273b 3ec6 b9bb 1a4a 203d
000000a0: c94d b5bc cf93 b53c 5ff5 15bd dd28 c7bc
000000b0: 88b8 35bc 06fe 9f3c 456a aab8 a6a9 70ba
000000c0: bab5 a7bc b50e bebc a475 c3bc 37a6 e03c
000000d0: 49bb d53c 1316 fdbc 1997 f43b 6bde 79bc
000000e0: a917 f23c 9ae1 14bd d2b1 93bc ebf0 163c
000000f0: 3b8f 80bc 0dfb 023d 4003 a5bc bbbc 8e3c
00000100: 0bfe 5bbc 9d2d 033c b31b b2bc 3350 04bd
00000110: 4209 0fbd 34a3 5d3c f380 a9bc 9fab 9abc
00000120: a6b0 b73c abe1 bd3c 6499 103c 4abc b6ba
00000130: 98cf 563c 2abd 4b3b 8024 21bc 9a1e 82bc
00000140: f6d1 0abd 6610 1dbd 0c25 bfbc 6120 993c
00000150: 88ce 133d 97c4 7f3b c16e edbc 7ff6 033a
00000160: 144c d63c d7cb 043d 2a54 c43c 9b01 65bc
00000170: d595 3c38 c6e3 ddbc e783 a1bc b4b4 123d
00000180: d86b 94bc 6b15 c4bb 7b90 973b 5c3c d73b
00000190: ce43 35bc 3042 0bbd fc88 203d c04a 16bc
000001a0: 610b 123d 91eb 973c 5df3 ce3c cc66 18bc
000001b0: 47a1 073d cdcd 5b3b bc40 d93b fd99 91bb
000001c0: cba5 eb3b a02a f0bc 2b46 6bbb 79dd ba3c
000001d0: 1a7c b83b 690e b43c 4c80 85bb 81de ecbc
000001e0: dade 1b3d 7344 aa3c aa77 d63c 91aa a5bc
000001f0: c35f 08bd 9f56 b33c 436f d53c 866e fbbc
-0.004884453 0.019010585 -0.01046669 -0.00016390922 -0.018592745 0.03327528 -0.021550203 0.006789854
0.006443608 -0.027318556 0.014282448 0.009147159 -0.037494916 -0.02139834 0.0017651651 -0.02025538
-0.029240124 -0.03652392 0.022962717 0.022596141 0.007491435 0.018696655 0.023028696 0.003248138
0.025895676 -0.00870419 0.025638092 0.028160773 0.03749035 0.0096942615 0.031961855 0.007365348
-0.019774774 -0.023185864 0.03403891 -0.0030634217 -0.033113047 0.0025598127 -0.0056693843 0.03913317
-0.022131817 0.022165207 -0.036610957 -0.024311477 -0.011091359 0.019530308 -8.126026e-05 -0.0009180553
-0.020472396 -0.023200372 -0.023859806 0.027423007 0.026090281 -0.030894315 0.0074643013 -0.0152507825
0.029552298 -0.036347963 -0.018029127 0.009212713 -0.015693298 0.031977702 -0.020143151 0.017423978
-0.013427268 0.0080064805 -0.021741724 -0.032303046 -0.03492094 0.01352768 -0.02069137 -0.018880663
0.0224231 0.023178896 0.008825634 -0.0013941613 0.013111018 0.0031088092 -0.009835362 -0.015883733
-0.03389164 -0.038345717 -0.023333095 0.018692197 0.036085635 0.0039027089 -0.028983476 0.0005033984
0.026159324 0.03242096 0.023965914 -0.013977434 4.4962235e-05 -0.02708615 -0.019716216 0.035816863
-0.01811783 -0.0059839985 0.0046253777 0.0065684747 -0.011063529 -0.03399867 0.03919314 -0.009173095
0.035655383 0.018544944 0.025262529 -0.009301852 0.03311279 0.0033539415 0.0066300314 -0.0044434057
0.007191395 -0.0293172 -0.0035899978 0.022810685 0.0056300284 0.021979528 -0.004074132 -0.028914692
0.038054325 0.020784592 0.026180107 -0.020222934 -0.03329445 0.02189189 0.02605403 -0.03069235

net.2.weight f4 [64, 128]
00000000: 5a1d 773c bf87 15bd b00f 59bd 52cd f9bc
00000010: 3703 0f3d 659b 85bc b932 ddbc a274 debc
00000020: b8c9 a8bd e450 acbd d047 e83c af52 53bd
00000030: 49a8 883c a3ae 323d dafc 923d 4907 d43b
00000040: 0085 7b3d f34f 1bbc 190d 58bd cf68 13bd
00000050: e82f 223d 178e f7bc 333d 76bc 8684 ab3d
00000060: 92f4 dfbb 5ff6 8a3d 85c0 1c3d 5c43 4d3c
00000070: b2f0 173d c322 503d 7373 04bc ce66 223d
00000080: 48ac 933d f874 42bd 1241 0abd ab06 9dba
00000090: 5f7c 403d 5006 7e3c 98e5 9d3d b0ae 22bc
000000a0: bb72 7abd 60b1 a73d 7795 b53c 36fb 393d
000000b0: 6be6 3dbd 9be3 773d c223 47bd 6a3c 81bd
000000c0: a974 893d 7caf e1bb dbb5 4fbc e7f9 343c
000000d0: 0dac 56bd 5939 a73d 7420 043b 980d ab3d
000000e0: e09b af3d ba6c 423d 57bf 92bd fb7a 61bc
000000f0: 58e3 b23d 6010 8f3c 7563 07bc de1e b13d
00000100: 24f1 cb3b d0c7 24bd 572c 63bd 598f c9bc
00000110: 6a30 8fbc 3cd1 2fbd b532 36bb 2570 8ebd
00000120: 1413 463d c8ff 053d e821 0bbd df9a ab3d
00000130: 1440 ad3c fedc 1cbd 2a71 213d de50 3fbc
00000140: 83af a73d d849 8c3d 62d4 27bc b577 3e3d
00000150: 1f13 7b3d 7f5a ea3c b070 b2bd 37a0 113d
00000160: e6d0 73bd 36b0 c8bc 68d0 ac3d a58c 143d
00000170: 0320 b23d e434 aabb 47d3 293d 2c4f 9c3a
00000180: e984 873c 3771 3fbd a74c 0bbd 98d3 6f3d
00000190: 977b 5fbd 4a90 91bd 00ea 963d a0be 6f3d
000001a0: ec21 94bd 2283 9c3d 7ef6 6ebd 3ace 6dbc
000001b0: 11ba 823d 782b eb3c 22ec 04bd 929e 133d
000001c0: 7201 d13b 0f15 a4bd a637 893b cbb1 5f3c
000001d0: b9b5 803d 36c1 a13d 93ce e53a 6858 53bd
000001e0: 2cde 6cbd 63aa 36bb 995a ec3b 8665 7fbd
000001f0: 23c6 9dbd f4c5 d53c 973b 92bd ed4c 4bbd
00000200: 67d1 eebc f0ae ba3c 69e3 33bd 4fdf 77bd
00000210: 6aa0 81bd 7825 83bd 33c2 703d 1b5d 9abb
00000220: ef19 693d 0d08 afbc ef6f a7bd 4856 b13d
00000230: 9347 933d 5bd4 503d 178f b1bd bc0f d6bc
00000240: c3b6 873d f382 82bd 64a5 9e3d 6d3b a0bd
00000250: 1dd8 3f3d fc2c 893d 8190 c83c 964f 0cbd
00000260: ac58 833d 1872 8c3d 4556 8a3d 9b4a b13d
00000270: f819 383d b1cc 3cbb c21a 1c3d 7378 963d
00000280: af06 7f3c ec10 a1bd 0ab3 963d e613 91bc
00000290: 0c89 7a3d 9fac 98bb 648d 023d d06c 38bb
000002a0: 77df 2fbd f344 033d 8538 253c 2368 98bd
000002b0: 7fb1 043c cead 50bd d5f2 fb3c db15 7a3d
000002c0: 99a4 2b3d b777 193d 193a 413d c82c fa3c
000002d0: 4196 9ebd 5a60 85bc 967a 893d 91a6 ec3c
000002e0: 81c8 81bd 53c1 6ebd cba2 97bd 1918 63bd
000002f0: b3c7 553d 3ab8 0c3d b073 8dbc 63c2 8fbc
00000300: a78f 853d 7286 0ebc ae4b 87bb 7b51 933d
00000310: 70ca 8a3c bd34 0a3d 6547 a03c 27b0 383d
00000320: 3066 a6bc 5ea5 a23d 03f8 e0bc 01a7 733d
00000330: 818a 9d3d c3fb d9bc 5f25 75bd bdfc 7a3d
00000340: 8912 833d b434 63bd 330d 96bc fd10 903d
00000350: 3af2 223d 1498 793d d898 48bd 2a5c 1a3d
00000360: a287 933b 7551 c03b 9308 483d 38e2 7abd
00000370: 90ec 4e3d 24b3 0fbd 942c 95bd 158b 7ebd
00000380: 6451 1a3d 0e9f 613d bf0d eb3c 0d6f 543c
00000390: b4bc 91bd ef7f a6bc e181 3fbd fcd2 863d
000003a0: dc54 27bd 0a0c d73c 6cd1 12bd 74dc 2ebc
000003b0: a9eb 603c 69f1 463c 7cb3 39bd 2daa 5e3c
000003c0: 83df 723d 8879 9e3d f8cf 803c bc16 9c3d
000003d0: 03c1 3a3d 5c6f 76ba 67a0 1c3d e9b1 12bc
000003e0: d085 b33d 91fd 08bd 294b d93c 2e18 303d
000003f0: 589d 7e3d 9231 f33a 9e0c b43d 8932 723d
0.015082682 -0.03650641 -0.052993476 -0.030493412 0.034915175 -0.01630945 -0.027001726 -0.027155224
-0.082416 -0.08413866 0.028354555 -0.051592525 0.016681807 0.043623578 0.07177134 0.006470595
0.061406136 -0.009479511 -0.052746866 -0.035988625 0.03959647 -0.03021912 -0.0150292395 0.08374886
-0.006834575 0.06785273 0.03826954 0.012528267 0.03709478 0.0508144 -0.008084166 0.039648823
0.072105944 -0.04747483 -0.033753462 -0.0011980137 0.04699361 0.015504435 0.07709807 -0.009929344
-0.06114457 0.081881285 0.022165997 0.04540559 -0.04636232 0.060519796 -0.048618086 -0.06310351
0.06711704 -0.0068873744 -0.012677635 0.0110459095 -0.052410174 0.08165235 0.0020160945 0.08352202
0.08574653 0.04746697 -0.071654014 -0.013762231 0.08734769 0.017463863 -0.0082634585 0.086484656
0.0062238146 -0.04022962 -0.055462208 -0.024604486 -0.01747914 -0.04292415 -0.002780122 -0.069549836
0.048358038 0.032714635 -0.033967882 0.08379149 0.021148719 -0.038296692 0.039414562 -0.011676995
0.08187773 0.06850022 -0.010243507 0.04650088 0.061297532 0.028607605 -0.087129 0.035553183
-0.059525393 -0.024498086 0.08438188 0.03626694 0.08697512 -0.0051942933 0.041461255 0.001192545
0.016542869 -0.04673883 -0.03400865 0.0585514 -0.054561224 -0.07107599 0.07368851 0.058531404
-0.072330326 0.07642199 -0.058340542 -0.0145145 0.063831456 0.028707251 -0.032451756 0.036039896
0.006378346 -0.08011829 0.004187542 0.013653229 0.06284661 0.0789818 0.0017532877 -0.051597983
-0.057829067 -0.0027872554 0.0072129485 -0.06235268 -0.07703807 0.026095368 -0.07140272 -0.04963391
-0.029152585 0.022788495 -0.043918047 -0.060515698 -0.06329425 -0.06403631 0.058778953 -0.004710806
0.056909498 -0.021366144 -0.081756465 0.08659035 0.07191386 0.050983768 -0.0866987 -0.02613055
0.06626656 -0.06372633 0.077463895 -0.078238346 0.04683696 0.06698033 0.024482967 -0.034255587
0.06413397 0.06857699 0.06754736 0.08656808 0.04494664 -0.002880853 0.038111456 0.073471926
0.015565558 -0.07864556 0.07358368 -0.017709684 0.061165854 -0.00465925 0.03187312 -0.002814103
-0.042937722 0.032048177 0.010084276 -0.074417375 0.008098959 -0.050947003 0.03075544 0.061056
0.04190502 0.037467685 0.047174547 0.030538931 -0.077435024 -0.016281296 0.067128345 0.028888019
-0.06337071 -0.058289837 -0.07404097 -0.055442903 0.0521924 0.03435538 -0.017267078 -0.017548745
0.0652154 -0.008699046 -0.004128895 0.071932755 0.016942233 0.0337417 0.019565294 0.045089867
-0.020312399 0.079416975 -0.027462011 0.05948544 0.07692433 -0.026609307 -0.059850093 0.061276186
0.0640002 -0.055470183 -0.01831684 0.0703449 0.039781787 0.06093605 -0.04897389 0.03768555
0.0045022527 0.0058690854 0.048836302 -0.061250895 0.050518572 -0.03508295 -0.07283893 -0.062144358
0.037675276 0.055083327 0.028693078 0.01296593 -0.071160704 -0.020324675 -0.04675472 0.06583211
-0.040852413 0.026250858 -0.03584425 -0.010672677 0.013728061 0.012142518 -0.045337185 0.013590378
0.05929519 0.07738024 0.015724167 0.07621524 0.045594227 -0.0009400749 0.03823891 -0.00895355
0.08765757 -0.033444945 0.026525097 0.04299181 0.062161773 0.0018554202 0.08791469 0.059130225

net.2.bias f4 [64]
00000000: b068 7ebc 2a93 1cbd 515c 8b3d 977b 95bd
00000010: 06d9 82bd d895 81bd 1df3 843d 029d 6abd
00000020: 7eea c23c 8652 24bd 4cc1 84bc 9fe1 89bb
00000030: 6cf5 61bd 8575 91bd 0a1e 373c ed37 7b3d
00000040: ce99 c43c 98d6 57bd 5d63 49bd b18a 883d
00000050: 090b 843d 1b59 91bb dac0 6e3d d72c 89bd
00000060: 7b16 1abb 64eb 953c 33fd 6c3d 2f0d acbd
00000070: f256 b0bd 64d0 8ebd 0a4a d4bc a586 12bc
00000080: 4fea 763c c9a3 af3d 6ec1 823d f8f4 37bd
00000090: 31e4 4b3d f00f 88bd 87e3 993c 1563 48bd
000000a0: 3063 753d b13d 3c3d 0caa afbc 71a3 9fbd
000000b0: 0a1a 553d 5e28 7fbd f652 b03d 66df 09bd
000000c0: 91c5 3ebd 8472 83bd 1a20 4fbd 150b 353d
000000d0: 3671 823d bf50 303b ae19 453c 83da 34bd
000000e0: d61a eabc ad59 5a3c e71c 4abc 7e3f 1a3c
000000f0: fd32 c43c 38b6 96bd 509e 86bd ef55 703c
-0.015527889 -0.038226284 0.06804717 -0.072989635 -0.0638905 -0.063274086 0.06491683 -0.05727864
0.023793455 -0.040117763 -0.016205452 -0.0042078043 -0.055165693 -0.07102493 0.011176595 0.06133263
0.023999121 -0.052694887 -0.049167026 0.06667078 0.06447417 -0.004435671 0.058289386 -0.06698006
-0.0023511935 0.01830072 0.057858657 -0.08400952 -0.086103335 -0.06973341 -0.02591421 -0.008943235
0.015070512 0.085761614 0.0638455 -0.044911355 0.049778167 -0.06643665 0.018785251 -0.048922617
0.059909046 0.04595727 -0.02144339 -0.07794846 0.052026786 -0.062294357 0.086095735 -0.033660315
-0.046575133 -0.064183265 -0.050567724 0.04420002 0.063692495 0.0026903597 0.012030048 -0.0441537
-0.02857725 0.013327044 -0.012335992 0.009414552 0.023950094 -0.07358974 -0.065731645 0.014668926

net.4.weight f4 [1, 64]
00000000: 6038 76bd 92df c2bd 7021 173d e0d6 91bd
00000010: 5027 583d ee94 f1bd 7c53 a03d 08f8 50bd
00000020: 6815 7f3d 4019 af3d 5455 343d b0e5 6b3d
00000030: 0cfc 933d 124a 8e3d 183f eebc 60a7 63bc
00000040: e077 f5bc 5cd4 eabd c0e0 49bd e0c7 c63c
00000050: 5c5a 3abd 784b fe3d 20ee 45bc c041 df3c
00000060: ac3d a4bd 18e3 fd3d e01a 0bbd 4032 7dbc
00000070: 0aab e13d 2828 3dbd 00fd 6dbb 06a9 e2bd
00000080: bc41 ce3d f85a ffbc f018 ccbc bac5 dcbd
00000090: a89b 99bd 329a dbbd da2e fb3d 6428 903d
000000a0: de72 c93d c0dc d63b caa6 c63d 80ea 143b
000000b0: 28da 103d b06e e93d 78bc 97bc 0cf8 4d3d
000000c0: 9459 98bd ba50 9cbd a06c 82bb 6a76 aabd
000000d0: 8645 a6bd 4461 2e3d e44d 673d a808 fe3c
000000e0: 94fb d03d 98dd 713d 20d9 fcbb 760c f9bd
000000f0: dee1 813d a08c 8bbc fa06 bd3d 0081 853c
-0.060112357 -0.09515299 0.036897123 -0.07121062 0.052771866 -0.11795984 0.078284234 -0.05101779
0.062276274 0.08549738 0.044026688 0.057592094 0.072258085 0.069477215 -0.02908282 -0.013894886
-0.029964387 -0.114662856 -0.049286604 0.02426523 -0.04549633 0.12416738 -0.012080699 0.027253032
-0.080195755 0.1239683 -0.033961177 -0.015453875 0.11018951 -0.046180874 -0.003631413 -0.11067395
0.100711316 -0.031171307 -0.024914235 -0.10779901 -0.07500392 -0.1072277 0.122647956 0.07038954
0.09836362 0.006557077 0.09699781 0.002272278 0.0353643 0.11398065 -0.018522486 0.050285384
-0.07438961 -0.07632585 -0.0039802343 -0.08323367 -0.08118729 0.04257323 0.056470767 0.031009987
0.10204235 0.05904922 -0.007716313 -0.1216058 0.06341909 -0.017034829 0.09229846 0.016296864
